…
2020-03-26 17:39:24.001981: I tensorflow/core/platform/cpu_feature_guard.cc:142] Your CPU supports instructions that this TensorFlow binary was not compiled to use: AVX2
2020-03-26 17:39:24.012742: I tensorflow/core/common_runtime/gpu/gpu_device.cc:1096] Device interconnect StreamExecutor with strength 1 edge matrix:
2020-03-26 17:39:24.016092: I tensorflow/core/common_runtime/gpu/gpu_device.cc:1102]
Model: "model"
_________________________________________________________________
Layer (type)                 Output Shape              Param #
=================================================================
inputs_basa (InputLayer)     [(None, 784)]             0
_________________________________________________________________
dense (Dense)                (None, 370)               290450
_________________________________________________________________
activation (Activation)      (None, 370)               0
_________________________________________________________________
dense_1 (Dense)              (None, 1460)              541660
_________________________________________________________________
activation_1 (Activation)    (None, 1460)              0
_________________________________________________________________
batch_normalization (BatchNo (None, 1460)              5840
_________________________________________________________________
dense_2 (Dense)              (None, 1680)              2454480
_________________________________________________________________
activation_2 (Activation)    (None, 1680)              0
_________________________________________________________________
dropout (Dropout)            (None, 1680)              0
_________________________________________________________________
batch_normalization_1 (Batch (None, 1680)              6720
_________________________________________________________________
dense_3 (Dense)              (None, 880)               1479280
_________________________________________________________________
activation_3 (Activation)    (None, 880)               0
_________________________________________________________________
dense_4 (Dense)              (None, 10)                8810
=================================================================
Total params: 4,787,240
Trainable params: 4,780,960
Non-trainable params: 6,280
_________________________________________________________________
None
Model: "model_1"
_________________________________________________________________
Layer (type)                 Output Shape              Param #
=================================================================
inputs_basa (InputLayer)     [(None, 784)]             0
_________________________________________________________________
dense_5 (Dense)              (None, 10)                7850
_________________________________________________________________
activation_4 (Activation)    (None, 10)                0
_________________________________________________________________
dropout_1 (Dropout)          (None, 10)                0
_________________________________________________________________
dense_6 (Dense)              (None, 1300)              14300
_________________________________________________________________
activation_5 (Activation)    (None, 1300)              0
_________________________________________________________________
dense_7 (Dense)              (None, 1640)              2133640
_________________________________________________________________
activation_6 (Activation)    (None, 1640)              0
_________________________________________________________________
dropout_2 (Dropout)          (None, 1640)              0
_________________________________________________________________
batch_normalization_2 (Batch (None, 1640)              6560
_________________________________________________________________
dense_8 (Dense)              (None, 680)               1115880
_________________________________________________________________
activation_7 (Activation)    (None, 680)               0
_________________________________________________________________
dense_9 (Dense)              (None, 10)                6810
=================================================================
Total params: 3,285,040
Trainable params: 3,281,760
Non-trainable params: 3,280
_________________________________________________________________
None
Model: "model_2"
_________________________________________________________________
Layer (type)                 Output Shape              Param #
=================================================================
inputs_basa (InputLayer)     [(None, 784)]             0
_________________________________________________________________
dense_10 (Dense)             (None, 780)               612300
_________________________________________________________________
activation_8 (Activation)    (None, 780)               0
_________________________________________________________________
dropout_3 (Dropout)          (None, 780)               0
_________________________________________________________________
dense_11 (Dense)             (None, 700)               546700
_________________________________________________________________
activation_9 (Activation)    (None, 700)               0
_________________________________________________________________
dropout_4 (Dropout)          (None, 700)               0
_________________________________________________________________
batch_normalization_3 (Batch (None, 700)               2800
_________________________________________________________________
dense_12 (Dense)             (None, 1780)              1247780
_________________________________________________________________
activation_10 (Activation)   (None, 1780)              0
_________________________________________________________________
dense_13 (Dense)             (None, 1290)              2297490
_________________________________________________________________
activation_11 (Activation)   (None, 1290)              0
_________________________________________________________________
dense_14 (Dense)             (None, 790)               1019890
_________________________________________________________________
activation_12 (Activation)   (None, 790)               0
_________________________________________________________________
dense_15 (Dense)             (None, 890)               703990
_________________________________________________________________
activation_13 (Activation)   (None, 890)               0
_________________________________________________________________
dense_16 (Dense)             (None, 10)                8910
=================================================================
Total params: 6,439,860
Trainable params: 6,438,460
Non-trainable params: 1,400
_________________________________________________________________
None
Model: "model_3"
_________________________________________________________________
Layer (type)                 Output Shape              Param #
=================================================================
inputs_basa (InputLayer)     [(None, 784)]             0
_________________________________________________________________
dense_17 (Dense)             (None, 1410)              1106850
_________________________________________________________________
activation_14 (Activation)   (None, 1410)              0
_________________________________________________________________
dropout_5 (Dropout)          (None, 1410)              0
_________________________________________________________________
dense_18 (Dense)             (None, 1790)              2525690
_________________________________________________________________
activation_15 (Activation)   (None, 1790)              0
_________________________________________________________________
dropout_6 (Dropout)          (None, 1790)              0
_________________________________________________________________
batch_normalization_4 (Batch (None, 1790)              7160
_________________________________________________________________
dense_19 (Dense)             (None, 1390)              2489490
_________________________________________________________________
activation_16 (Activation)   (None, 1390)              0
_________________________________________________________________
dense_20 (Dense)             (None, 100)               139100
_________________________________________________________________
activation_17 (Activation)   (None, 100)               0
_________________________________________________________________
batch_normalization_5 (Batch (None, 100)               400
_________________________________________________________________
dense_21 (Dense)             (None, 1340)              135340
_________________________________________________________________
activation_18 (Activation)   (None, 1340)              0
_________________________________________________________________
dropout_7 (Dropout)          (None, 1340)              0
_________________________________________________________________
dense_22 (Dense)             (None, 1560)              2091960
_________________________________________________________________
activation_19 (Activation)   (None, 1560)              0
_________________________________________________________________
dropout_8 (Dropout)          (None, 1560)              0
_________________________________________________________________
dense_23 (Dense)             (None, 1290)              2013690
_________________________________________________________________
activation_20 (Activation)   (None, 1290)              0
_________________________________________________________________
batch_normalization_6 (Batch (None, 1290)              5160
_________________________________________________________________
dense_24 (Dense)             (None, 110)               142010
_________________________________________________________________
activation_21 (Activation)   (None, 110)               0
_________________________________________________________________
dropout_9 (Dropout)          (None, 110)               0
_________________________________________________________________
dense_25 (Dense)             (None, 170)               18870
_________________________________________________________________
activation_22 (Activation)   (None, 170)               0
_________________________________________________________________
dense_26 (Dense)             (None, 10)                1710
=================================================================
Total params: 10,677,430
Trainable params: 10,671,070
Non-trainable params: 6,360
_________________________________________________________________
None
Model: "model_4"
_________________________________________________________________
Layer (type)                 Output Shape              Param #
=================================================================
inputs_basa (InputLayer)     [(None, 784)]             0
_________________________________________________________________
dense_27 (Dense)             (None, 1150)              902750
_________________________________________________________________
activation_23 (Activation)   (None, 1150)              0
_________________________________________________________________
dense_28 (Dense)             (None, 10)                11510
=================================================================
Total params: 914,260
Trainable params: 914,260
Non-trainable params: 0
_________________________________________________________________
None
Model: "model_5"
_________________________________________________________________
Layer (type)                 Output Shape              Param #
=================================================================
inputs_basa (InputLayer)     [(None, 784)]             0
_________________________________________________________________
dense_29 (Dense)             (None, 150)               117750
_________________________________________________________________
activation_24 (Activation)   (None, 150)               0
_________________________________________________________________
batch_normalization_7 (Batch (None, 150)               600
_________________________________________________________________
dense_30 (Dense)             (None, 1970)              297470
_________________________________________________________________
activation_25 (Activation)   (None, 1970)              0
_________________________________________________________________
dropout_10 (Dropout)         (None, 1970)              0
_________________________________________________________________
dense_31 (Dense)             (None, 1920)              3784320
_________________________________________________________________
activation_26 (Activation)   (None, 1920)              0
_________________________________________________________________
dropout_11 (Dropout)         (None, 1920)              0
_________________________________________________________________
batch_normalization_8 (Batch (None, 1920)              7680
_________________________________________________________________
dense_32 (Dense)             (None, 1360)              2612560
_________________________________________________________________
activation_27 (Activation)   (None, 1360)              0
_________________________________________________________________
batch_normalization_9 (Batch (None, 1360)              5440
_________________________________________________________________
dense_33 (Dense)             (None, 770)               1047970
_________________________________________________________________
activation_28 (Activation)   (None, 770)               0
_________________________________________________________________
dense_34 (Dense)             (None, 10)                7710
=================================================================
Total params: 7,881,500
Trainable params: 7,874,640
Non-trainable params: 6,860
_________________________________________________________________
None
Model: "model_6"
_________________________________________________________________
Layer (type)                 Output Shape              Param #
=================================================================
inputs_basa (InputLayer)     [(None, 784)]             0
_________________________________________________________________
dense_35 (Dense)             (None, 1050)              824250
_________________________________________________________________
activation_29 (Activation)   (None, 1050)              0
_________________________________________________________________
batch_normalization_10 (Batc (None, 1050)              4200
_________________________________________________________________
dense_36 (Dense)             (None, 1200)              1261200
_________________________________________________________________
activation_30 (Activation)   (None, 1200)              0
_________________________________________________________________
dropout_12 (Dropout)         (None, 1200)              0
_________________________________________________________________
dense_37 (Dense)             (None, 1180)              1417180
_________________________________________________________________
activation_31 (Activation)   (None, 1180)              0
_________________________________________________________________
dropout_13 (Dropout)         (None, 1180)              0
_________________________________________________________________
batch_normalization_11 (Batc (None, 1180)              4720
_________________________________________________________________
dense_38 (Dense)             (None, 460)               543260
_________________________________________________________________
activation_32 (Activation)   (None, 460)               0
_________________________________________________________________
dropout_14 (Dropout)         (None, 460)               0
_________________________________________________________________
batch_normalization_12 (Batc (None, 460)               1840
_________________________________________________________________
dense_39 (Dense)             (None, 710)               327310
_________________________________________________________________
activation_33 (Activation)   (None, 710)               0
_________________________________________________________________
batch_normalization_13 (Batc (None, 710)               2840
_________________________________________________________________
dense_40 (Dense)             (None, 420)               298620
_________________________________________________________________
activation_34 (Activation)   (None, 420)               0
_________________________________________________________________
dropout_15 (Dropout)         (None, 420)               0
_________________________________________________________________
dense_41 (Dense)             (None, 10)                4210
=================================================================
Total params: 4,689,630
Trainable params: 4,682,830
Non-trainable params: 6,800
_________________________________________________________________
None
Model: "model_7"
_________________________________________________________________
Layer (type)                 Output Shape              Param #
=================================================================
inputs_basa (InputLayer)     [(None, 784)]             0
_________________________________________________________________
dense_42 (Dense)             (None, 1060)              832100
_________________________________________________________________
activation_35 (Activation)   (None, 1060)              0
_________________________________________________________________
dropout_16 (Dropout)         (None, 1060)              0
_________________________________________________________________
batch_normalization_14 (Batc (None, 1060)              4240
_________________________________________________________________
dense_43 (Dense)             (None, 1890)              2005290
_________________________________________________________________
activation_36 (Activation)   (None, 1890)              0
_________________________________________________________________
dropout_17 (Dropout)         (None, 1890)              0
_________________________________________________________________
dense_44 (Dense)             (None, 940)               1777540
_________________________________________________________________
activation_37 (Activation)   (None, 940)               0
_________________________________________________________________
batch_normalization_15 (Batc (None, 940)               3760
_________________________________________________________________
dense_45 (Dense)             (None, 580)               545780
_________________________________________________________________
activation_38 (Activation)   (None, 580)               0
_________________________________________________________________
dense_46 (Dense)             (None, 350)               203350
_________________________________________________________________
activation_39 (Activation)   (None, 350)               0
_________________________________________________________________
dropout_18 (Dropout)         (None, 350)               0
_________________________________________________________________
dense_47 (Dense)             (None, 670)               235170
_________________________________________________________________
activation_40 (Activation)   (None, 670)               0
_________________________________________________________________
batch_normalization_16 (Batc (None, 670)               2680
_________________________________________________________________
dense_48 (Dense)             (None, 880)               590480
_________________________________________________________________
activation_41 (Activation)   (None, 880)               0
_________________________________________________________________
dropout_19 (Dropout)         (None, 880)               0
_________________________________________________________________
batch_normalization_17 (Batc (None, 880)               3520
_________________________________________________________________
dense_49 (Dense)             (None, 370)               325970
_________________________________________________________________
activation_42 (Activation)   (None, 370)               0
_________________________________________________________________
batch_normalization_18 (Batc (None, 370)               1480
_________________________________________________________________
dense_50 (Dense)             (None, 90)                33390
_________________________________________________________________
activation_43 (Activation)   (None, 90)                0
_________________________________________________________________
dense_51 (Dense)             (None, 10)                910
=================================================================
Total params: 6,565,660
Trainable params: 6,557,820
Non-trainable params: 7,840
_________________________________________________________________
None
Model: "model_8"
_________________________________________________________________
Layer (type)                 Output Shape              Param #
=================================================================
inputs_basa (InputLayer)     [(None, 784)]             0
_________________________________________________________________
dense_52 (Dense)             (None, 650)               510250
_________________________________________________________________
activation_44 (Activation)   (None, 650)               0
_________________________________________________________________
dropout_20 (Dropout)         (None, 650)               0
_________________________________________________________________
dense_53 (Dense)             (None, 1750)              1139250
_________________________________________________________________
activation_45 (Activation)   (None, 1750)              0
_________________________________________________________________
dropout_21 (Dropout)         (None, 1750)              0
_________________________________________________________________
batch_normalization_19 (Batc (None, 1750)              7000
_________________________________________________________________
dense_54 (Dense)             (None, 820)               1435820
_________________________________________________________________
activation_46 (Activation)   (None, 820)               0
_________________________________________________________________
dense_55 (Dense)             (None, 10)                8210
=================================================================
Total params: 3,100,530
Trainable params: 3,097,030
Non-trainable params: 3,500
_________________________________________________________________
None
Model: "model_9"
_________________________________________________________________
Layer (type)                 Output Shape              Param #
=================================================================
inputs_basa (InputLayer)     [(None, 784)]             0
_________________________________________________________________
dense_56 (Dense)             (None, 1990)              1562150
_________________________________________________________________
activation_47 (Activation)   (None, 1990)              0
_________________________________________________________________
dense_57 (Dense)             (None, 1540)              3066140
_________________________________________________________________
activation_48 (Activation)   (None, 1540)              0
_________________________________________________________________
batch_normalization_20 (Batc (None, 1540)              6160
_________________________________________________________________
dense_58 (Dense)             (None, 1470)              2265270
_________________________________________________________________
activation_49 (Activation)   (None, 1470)              0
_________________________________________________________________
batch_normalization_21 (Batc (None, 1470)              5880
_________________________________________________________________
dense_59 (Dense)             (None, 10)                14710
=================================================================
Total params: 6,920,310
Trainable params: 6,914,290
Non-trainable params: 6,020
_________________________________________________________________
None
Model: "model_10"
_________________________________________________________________
Layer (type)                 Output Shape              Param #
=================================================================
inputs_basa (InputLayer)     [(None, 784)]             0
_________________________________________________________________
dense_60 (Dense)             (None, 1130)              887050
_________________________________________________________________
activation_50 (Activation)   (None, 1130)              0
_________________________________________________________________
dropout_22 (Dropout)         (None, 1130)              0
_________________________________________________________________
batch_normalization_22 (Batc (None, 1130)              4520
_________________________________________________________________
dense_61 (Dense)             (None, 210)               237510
_________________________________________________________________
activation_51 (Activation)   (None, 210)               0
_________________________________________________________________
dense_62 (Dense)             (None, 590)               124490
_________________________________________________________________
activation_52 (Activation)   (None, 590)               0
_________________________________________________________________
batch_normalization_23 (Batc (None, 590)               2360
_________________________________________________________________
dense_63 (Dense)             (None, 440)               260040
_________________________________________________________________
activation_53 (Activation)   (None, 440)               0
_________________________________________________________________
dropout_23 (Dropout)         (None, 440)               0
_________________________________________________________________
batch_normalization_24 (Batc (None, 440)               1760
_________________________________________________________________
dense_64 (Dense)             (None, 1540)              679140
_________________________________________________________________
activation_54 (Activation)   (None, 1540)              0
_________________________________________________________________
dropout_24 (Dropout)         (None, 1540)              0
_________________________________________________________________
batch_normalization_25 (Batc (None, 1540)              6160
_________________________________________________________________
dense_65 (Dense)             (None, 10)                15410
=================================================================
Total params: 2,218,440
Trainable params: 2,211,040
Non-trainable params: 7,400
_________________________________________________________________
None
Model: "model_11"
_________________________________________________________________
Layer (type)                 Output Shape              Param #
=================================================================
inputs_basa (InputLayer)     [(None, 784)]             0
_________________________________________________________________
dense_66 (Dense)             (None, 330)               259050
_________________________________________________________________
activation_55 (Activation)   (None, 330)               0
_________________________________________________________________
dense_67 (Dense)             (None, 1930)              638830
_________________________________________________________________
activation_56 (Activation)   (None, 1930)              0
_________________________________________________________________
dropout_25 (Dropout)         (None, 1930)              0
_________________________________________________________________
batch_normalization_26 (Batc (None, 1930)              7720
_________________________________________________________________
dense_68 (Dense)             (None, 1930)              3726830
_________________________________________________________________
activation_57 (Activation)   (None, 1930)              0
_________________________________________________________________
dropout_26 (Dropout)         (None, 1930)              0
_________________________________________________________________
dense_69 (Dense)             (None, 1350)              2606850
_________________________________________________________________
activation_58 (Activation)   (None, 1350)              0
_________________________________________________________________
batch_normalization_27 (Batc (None, 1350)              5400
_________________________________________________________________
dense_70 (Dense)             (None, 10)                13510
=================================================================
Total params: 7,258,190
Trainable params: 7,251,630
Non-trainable params: 6,560
_________________________________________________________________
None
Model: "model_12"
_________________________________________________________________
Layer (type)                 Output Shape              Param #
=================================================================
inputs_basa (InputLayer)     [(None, 784)]             0
_________________________________________________________________
dense_71 (Dense)             (None, 1310)              1028350
_________________________________________________________________
activation_59 (Activation)   (None, 1310)              0
_________________________________________________________________
batch_normalization_28 (Batc (None, 1310)              5240
_________________________________________________________________
dense_72 (Dense)             (None, 1980)              2595780
_________________________________________________________________
activation_60 (Activation)   (None, 1980)              0
_________________________________________________________________
dropout_27 (Dropout)         (None, 1980)              0
_________________________________________________________________
dense_73 (Dense)             (None, 60)                118860
_________________________________________________________________
activation_61 (Activation)   (None, 60)                0
_________________________________________________________________
dropout_28 (Dropout)         (None, 60)                0
_________________________________________________________________
dense_74 (Dense)             (None, 1340)              81740
_________________________________________________________________
activation_62 (Activation)   (None, 1340)              0
_________________________________________________________________
dropout_29 (Dropout)         (None, 1340)              0
_________________________________________________________________
dense_75 (Dense)             (None, 540)               724140
_________________________________________________________________
activation_63 (Activation)   (None, 540)               0
_________________________________________________________________
batch_normalization_29 (Batc (None, 540)               2160
_________________________________________________________________
dense_76 (Dense)             (None, 1380)              746580
_________________________________________________________________
activation_64 (Activation)   (None, 1380)              0
_________________________________________________________________
dense_77 (Dense)             (None, 10)                13810
=================================================================
Total params: 5,316,660
Trainable params: 5,312,960
Non-trainable params: 3,700
_________________________________________________________________
None
Model: "model_13"
_________________________________________________________________
Layer (type)                 Output Shape              Param #
=================================================================
inputs_basa (InputLayer)     [(None, 784)]             0
_________________________________________________________________
dense_78 (Dense)             (None, 1730)              1358050
_________________________________________________________________
activation_65 (Activation)   (None, 1730)              0
_________________________________________________________________
dense_79 (Dense)             (None, 1650)              2856150
_________________________________________________________________
activation_66 (Activation)   (None, 1650)              0
_________________________________________________________________
batch_normalization_30 (Batc (None, 1650)              6600
_________________________________________________________________
dense_80 (Dense)             (None, 10)                16510
=================================================================
Total params: 4,237,310
Trainable params: 4,234,010
Non-trainable params: 3,300
_________________________________________________________________
None
Model: "model_14"
_________________________________________________________________
Layer (type)                 Output Shape              Param #
=================================================================
inputs_basa (InputLayer)     [(None, 784)]             0
_________________________________________________________________
dense_81 (Dense)             (None, 1920)              1507200
_________________________________________________________________
activation_67 (Activation)   (None, 1920)              0
_________________________________________________________________
dropout_30 (Dropout)         (None, 1920)              0
_________________________________________________________________
dense_82 (Dense)             (None, 10)                19210
=================================================================
Total params: 1,526,410
Trainable params: 1,526,410
Non-trainable params: 0
_________________________________________________________________
None
Model: "model_15"
_________________________________________________________________
Layer (type)                 Output Shape              Param #
=================================================================
inputs_basa (InputLayer)     [(None, 784)]             0
_________________________________________________________________
dense_83 (Dense)             (None, 180)               141300
_________________________________________________________________
activation_68 (Activation)   (None, 180)               0
_________________________________________________________________
dropout_31 (Dropout)         (None, 180)               0
_________________________________________________________________
batch_normalization_31 (Batc (None, 180)               720
_________________________________________________________________
dense_84 (Dense)             (None, 10)                1810
=================================================================
Total params: 143,830
Trainable params: 143,470
Non-trainable params: 360
_________________________________________________________________
None
Model: "model_16"
_________________________________________________________________
Layer (type)                 Output Shape              Param #
=================================================================
inputs_basa (InputLayer)     [(None, 784)]             0
_________________________________________________________________
dense_85 (Dense)             (None, 1490)              1169650
_________________________________________________________________
activation_69 (Activation)   (None, 1490)              0
_________________________________________________________________
dropout_32 (Dropout)         (None, 1490)              0
_________________________________________________________________
batch_normalization_32 (Batc (None, 1490)              5960
_________________________________________________________________
dense_86 (Dense)             (None, 870)               1297170
_________________________________________________________________
activation_70 (Activation)   (None, 870)               0
_________________________________________________________________
dropout_33 (Dropout)         (None, 870)               0
_________________________________________________________________
dense_87 (Dense)             (None, 610)               531310
_________________________________________________________________
activation_71 (Activation)   (None, 610)               0
_________________________________________________________________
dense_88 (Dense)             (None, 10)                6110
=================================================================
Total params: 3,010,200
Trainable params: 3,007,220
Non-trainable params: 2,980
_________________________________________________________________
None
Model: "model_17"
_________________________________________________________________
Layer (type)                 Output Shape              Param #
=================================================================
inputs_basa (InputLayer)     [(None, 784)]             0
_________________________________________________________________
dense_89 (Dense)             (None, 110)               86350
_________________________________________________________________
activation_72 (Activation)   (None, 110)               0
_________________________________________________________________
dropout_34 (Dropout)         (None, 110)               0
_________________________________________________________________
batch_normalization_33 (Batc (None, 110)               440
_________________________________________________________________
dense_90 (Dense)             (None, 1520)              168720
_________________________________________________________________
activation_73 (Activation)   (None, 1520)              0
_________________________________________________________________
batch_normalization_34 (Batc (None, 1520)              6080
_________________________________________________________________
dense_91 (Dense)             (None, 10)                15210
=================================================================
Total params: 276,800
Trainable params: 273,540
Non-trainable params: 3,260
_________________________________________________________________
None
Model: "model_18"
_________________________________________________________________
Layer (type)                 Output Shape              Param #
=================================================================
inputs_basa (InputLayer)     [(None, 784)]             0
_________________________________________________________________
dense_92 (Dense)             (None, 1420)              1114700
_________________________________________________________________
activation_74 (Activation)   (None, 1420)              0
_________________________________________________________________
dropout_35 (Dropout)         (None, 1420)              0
_________________________________________________________________
batch_normalization_35 (Batc (None, 1420)              5680
_________________________________________________________________
dense_93 (Dense)             (None, 1000)              1421000
_________________________________________________________________
activation_75 (Activation)   (None, 1000)              0
_________________________________________________________________
dropout_36 (Dropout)         (None, 1000)              0
_________________________________________________________________
batch_normalization_36 (Batc (None, 1000)              4000
_________________________________________________________________
dense_94 (Dense)             (None, 1190)              1191190
_________________________________________________________________
activation_76 (Activation)   (None, 1190)              0
_________________________________________________________________
dropout_37 (Dropout)         (None, 1190)              0
_________________________________________________________________
batch_normalization_37 (Batc (None, 1190)              4760
_________________________________________________________________
dense_95 (Dense)             (None, 10)                11910
=================================================================
Total params: 3,753,240
Trainable params: 3,746,020
Non-trainable params: 7,220
_________________________________________________________________
None
Model: "model_19"
_________________________________________________________________
Layer (type)                 Output Shape              Param #
=================================================================
inputs_basa (InputLayer)     [(None, 784)]             0
_________________________________________________________________
dense_96 (Dense)             (None, 1730)              1358050
_________________________________________________________________
activation_77 (Activation)   (None, 1730)              0
_________________________________________________________________
dense_97 (Dense)             (None, 1940)              3358140
_________________________________________________________________
activation_78 (Activation)   (None, 1940)              0
_________________________________________________________________
dropout_38 (Dropout)         (None, 1940)              0
_________________________________________________________________
dense_98 (Dense)             (None, 1600)              3105600
_________________________________________________________________
activation_79 (Activation)   (None, 1600)              0
_________________________________________________________________
dense_99 (Dense)             (None, 1960)              3137960
_________________________________________________________________
activation_80 (Activation)   (None, 1960)              0
_________________________________________________________________
dropout_39 (Dropout)         (None, 1960)              0
_________________________________________________________________
batch_normalization_38 (Batc (None, 1960)              7840
_________________________________________________________________
dense_100 (Dense)            (None, 1010)              1980610
_________________________________________________________________
activation_81 (Activation)   (None, 1010)              0
_________________________________________________________________
batch_normalization_39 (Batc (None, 1010)              4040
_________________________________________________________________
dense_101 (Dense)            (None, 940)               950340
_________________________________________________________________
activation_82 (Activation)   (None, 940)               0
_________________________________________________________________
dropout_40 (Dropout)         (None, 940)               0
_________________________________________________________________
batch_normalization_40 (Batc (None, 940)               3760
_________________________________________________________________
dense_102 (Dense)            (None, 770)               724570
_________________________________________________________________
activation_83 (Activation)   (None, 770)               0
_________________________________________________________________
dropout_41 (Dropout)         (None, 770)               0
_________________________________________________________________
batch_normalization_41 (Batc (None, 770)               3080
_________________________________________________________________
dense_103 (Dense)            (None, 10)                7710
=================================================================
Total params: 14,641,700
Trainable params: 14,632,340
Non-trainable params: 9,360
_________________________________________________________________
None
Model: "model_20"
_________________________________________________________________
Layer (type)                 Output Shape              Param #
=================================================================
inputs_basa (InputLayer)     [(None, 784)]             0
_________________________________________________________________
dense_104 (Dense)            (None, 170)               133450
_________________________________________________________________
activation_84 (Activation)   (None, 170)               0
_________________________________________________________________
dropout_42 (Dropout)         (None, 170)               0
_________________________________________________________________
batch_normalization_42 (Batc (None, 170)               680
_________________________________________________________________
dense_105 (Dense)            (None, 250)               42750
_________________________________________________________________
activation_85 (Activation)   (None, 250)               0
_________________________________________________________________
dense_106 (Dense)            (None, 1840)              461840
_________________________________________________________________
activation_86 (Activation)   (None, 1840)              0
_________________________________________________________________
dense_107 (Dense)            (None, 1080)              1988280
_________________________________________________________________
activation_87 (Activation)   (None, 1080)              0
_________________________________________________________________
batch_normalization_43 (Batc (None, 1080)              4320
_________________________________________________________________
dense_108 (Dense)            (None, 1450)              1567450
_________________________________________________________________
activation_88 (Activation)   (None, 1450)              0
_________________________________________________________________
dense_109 (Dense)            (None, 330)               478830
_________________________________________________________________
activation_89 (Activation)   (None, 330)               0
_________________________________________________________________
dropout_43 (Dropout)         (None, 330)               0
_________________________________________________________________
dense_110 (Dense)            (None, 1740)              575940
_________________________________________________________________
activation_90 (Activation)   (None, 1740)              0
_________________________________________________________________
dropout_44 (Dropout)         (None, 1740)              0
_________________________________________________________________
batch_normalization_44 (Batc (None, 1740)              6960
_________________________________________________________________
dense_111 (Dense)            (None, 1280)              2228480
_________________________________________________________________
activation_91 (Activation)   (None, 1280)              0
_________________________________________________________________
batch_normalization_45 (Batc (None, 1280)              5120
_________________________________________________________________
dense_112 (Dense)            (None, 680)               871080
_________________________________________________________________
activation_92 (Activation)   (None, 680)               0
_________________________________________________________________
batch_normalization_46 (Batc (None, 680)               2720
_________________________________________________________________
dense_113 (Dense)            (None, 10)                6810
=================================================================
Total params: 8,374,710
Trainable params: 8,364,810
Non-trainable params: 9,900
_________________________________________________________________
None
Train on 48000 samples, validate on 12000 samples
Epoch 1/10
Train on 48000 samples, validate on 12000 samples
Train on 48000 samples, validate on 12000 samples
Train on 48000 samples, validate on 12000 samples
…
 id = 15  val_accuracy = 0.9764999747276306
 id = 6  val_accuracy = 0.9757500290870667
 id = 17  val_accuracy = 0.9735833406448364
!!!!!!!!!!!!!!!!!!!!!!!!!!!!!!!!!!!!!!!!!!!!!!!!!!
!!!!!!!!!!!!!!!!  1   !!!!!!!!!!!!!!!!!!!!!!!!!!!!!!!!!!
Model: "model_21"
_________________________________________________________________
Layer (type)                 Output Shape              Param #
=================================================================
inputs_basa (InputLayer)     [(None, 784)]             0
_________________________________________________________________
dense_114 (Dense)            (None, 180)               141300
_________________________________________________________________
activation_93 (Activation)   (None, 180)               0
_________________________________________________________________
dropout_45 (Dropout)         (None, 180)               0
_________________________________________________________________
batch_normalization_47 (Batc (None, 180)               720
_________________________________________________________________
dense_115 (Dense)            (None, 10)                1810
=================================================================
Total params: 143,830
Trainable params: 143,470
Non-trainable params: 360
_________________________________________________________________
None
Model: "model_22"
_________________________________________________________________
Layer (type)                 Output Shape              Param #
=================================================================
inputs_basa (InputLayer)     [(None, 784)]             0
_________________________________________________________________
dense_116 (Dense)            (None, 1050)              824250
_________________________________________________________________
activation_94 (Activation)   (None, 1050)              0
_________________________________________________________________
batch_normalization_48 (Batc (None, 1050)              4200
_________________________________________________________________
dense_117 (Dense)            (None, 1200)              1261200
_________________________________________________________________
activation_95 (Activation)   (None, 1200)              0
_________________________________________________________________
dropout_46 (Dropout)         (None, 1200)              0
_________________________________________________________________
dense_118 (Dense)            (None, 1180)              1417180
_________________________________________________________________
activation_96 (Activation)   (None, 1180)              0
_________________________________________________________________
dropout_47 (Dropout)         (None, 1180)              0
_________________________________________________________________
batch_normalization_49 (Batc (None, 1180)              4720
_________________________________________________________________
dense_119 (Dense)            (None, 460)               543260
_________________________________________________________________
activation_97 (Activation)   (None, 460)               0
_________________________________________________________________
dropout_48 (Dropout)         (None, 460)               0
_________________________________________________________________
batch_normalization_50 (Batc (None, 460)               1840
_________________________________________________________________
dense_120 (Dense)            (None, 710)               327310
_________________________________________________________________
activation_98 (Activation)   (None, 710)               0
_________________________________________________________________
batch_normalization_51 (Batc (None, 710)               2840
_________________________________________________________________
dense_121 (Dense)            (None, 420)               298620
_________________________________________________________________
activation_99 (Activation)   (None, 420)               0
_________________________________________________________________
dropout_49 (Dropout)         (None, 420)               0
_________________________________________________________________
dense_122 (Dense)            (None, 10)                4210
=================================================================
Total params: 4,689,630
Trainable params: 4,682,830
Non-trainable params: 6,800
_________________________________________________________________
None
Model: "model_23"
_________________________________________________________________
Layer (type)                 Output Shape              Param #
=================================================================
inputs_basa (InputLayer)     [(None, 784)]             0
_________________________________________________________________
dense_123 (Dense)            (None, 110)               86350
_________________________________________________________________
activation_100 (Activation)  (None, 110)               0
_________________________________________________________________
dropout_50 (Dropout)         (None, 110)               0
_________________________________________________________________
batch_normalization_52 (Batc (None, 110)               440
_________________________________________________________________
dense_124 (Dense)            (None, 1520)              168720
_________________________________________________________________
activation_101 (Activation)  (None, 1520)              0
_________________________________________________________________
batch_normalization_53 (Batc (None, 1520)              6080
_________________________________________________________________
dense_125 (Dense)            (None, 10)                15210
=================================================================
Total params: 276,800
Trainable params: 273,540
Non-trainable params: 3,260
_________________________________________________________________
None
Model: "model_24"
_________________________________________________________________
Layer (type)                 Output Shape              Param #
=================================================================
inputs_basa (InputLayer)     [(None, 784)]             0
_________________________________________________________________
dense_126 (Dense)            (None, 112)               87920
_________________________________________________________________
activation_102 (Activation)  (None, 112)               0
_________________________________________________________________
dropout_51 (Dropout)         (None, 112)               0
_________________________________________________________________
batch_normalization_54 (Batc (None, 112)               448
_________________________________________________________________
dense_127 (Dense)            (None, 10)                1130
=================================================================
Total params: 89,498
Trainable params: 89,274
Non-trainable params: 224
_________________________________________________________________
None
Model: "model_25"
_________________________________________________________________
Layer (type)                 Output Shape              Param #
=================================================================
inputs_basa (InputLayer)     [(None, 784)]             0
_________________________________________________________________
dense_128 (Dense)            (None, 1234)              968690
_________________________________________________________________
activation_103 (Activation)  (None, 1234)              0
_________________________________________________________________
batch_normalization_55 (Batc (None, 1234)              4936
_________________________________________________________________
dense_129 (Dense)            (None, 1411)              1742585
_________________________________________________________________
activation_104 (Activation)  (None, 1411)              0
_________________________________________________________________
dropout_52 (Dropout)         (None, 1411)              0
_________________________________________________________________
dense_130 (Dense)            (None, 972)               1372464
_________________________________________________________________
activation_105 (Activation)  (None, 972)               0
_________________________________________________________________
dropout_53 (Dropout)         (None, 972)               0
_________________________________________________________________
batch_normalization_56 (Batc (None, 972)               3888
_________________________________________________________________
dense_131 (Dense)            (None, 379)               368767
_________________________________________________________________
activation_106 (Activation)  (None, 379)               0
_________________________________________________________________
dropout_54 (Dropout)         (None, 379)               0
_________________________________________________________________
batch_normalization_57 (Batc (None, 379)               1516
_________________________________________________________________
dense_132 (Dense)            (None, 834)               316920
_________________________________________________________________
activation_107 (Activation)  (None, 834)               0
_________________________________________________________________
batch_normalization_58 (Batc (None, 834)               3336
_________________________________________________________________
dense_133 (Dense)            (None, 346)               288910
_________________________________________________________________
activation_108 (Activation)  (None, 346)               0
_________________________________________________________________
dropout_55 (Dropout)         (None, 346)               0
_________________________________________________________________
dense_134 (Dense)            (None, 10)                3470
=================================================================
Total params: 5,075,482
Trainable params: 5,068,644
Non-trainable params: 6,838
_________________________________________________________________
None
Model: "model_26"
_________________________________________________________________
Layer (type)                 Output Shape              Param #
=================================================================
inputs_basa (InputLayer)     [(None, 784)]             0
_________________________________________________________________
dense_135 (Dense)            (None, 710)               557350
_________________________________________________________________
activation_109 (Activation)  (None, 710)               0
_________________________________________________________________
dropout_56 (Dropout)         (None, 710)               0
_________________________________________________________________
batch_normalization_59 (Batc (None, 710)               2840
_________________________________________________________________
dense_136 (Dense)            (None, 490)               348390
_________________________________________________________________
activation_110 (Activation)  (None, 490)               0
_________________________________________________________________
batch_normalization_60 (Batc (None, 490)               1960
_________________________________________________________________
dense_137 (Dense)            (None, 1630)              800330
_________________________________________________________________
activation_111 (Activation)  (None, 1630)              0
_________________________________________________________________
dropout_57 (Dropout)         (None, 1630)              0
_________________________________________________________________
dense_138 (Dense)            (None, 780)               1272180
_________________________________________________________________
activation_112 (Activation)  (None, 780)               0
_________________________________________________________________
dense_139 (Dense)            (None, 730)               570130
_________________________________________________________________
activation_113 (Activation)  (None, 730)               0
_________________________________________________________________
dropout_58 (Dropout)         (None, 730)               0
_________________________________________________________________
dense_140 (Dense)            (None, 1670)              1220770
_________________________________________________________________
activation_114 (Activation)  (None, 1670)              0
_________________________________________________________________
dropout_59 (Dropout)         (None, 1670)              0
_________________________________________________________________
dense_141 (Dense)            (None, 10)                16710
=================================================================
Total params: 4,790,660
Trainable params: 4,788,260
Non-trainable params: 2,400
_________________________________________________________________
None
Model: "model_27"
_________________________________________________________________
Layer (type)                 Output Shape              Param #
=================================================================
inputs_basa (InputLayer)     [(None, 784)]             0
_________________________________________________________________
dense_142 (Dense)            (None, 1100)              863500
_________________________________________________________________
activation_115 (Activation)  (None, 1100)              0
_________________________________________________________________
batch_normalization_61 (Batc (None, 1100)              4400
_________________________________________________________________
dense_143 (Dense)            (None, 10)                11010
=================================================================
Total params: 878,910
Trainable params: 876,710
Non-trainable params: 2,200
_________________________________________________________________
None
Model: "model_28"
_________________________________________________________________
Layer (type)                 Output Shape              Param #
=================================================================
inputs_basa (InputLayer)     [(None, 784)]             0
_________________________________________________________________
dense_144 (Dense)            (None, 1690)              1326650
_________________________________________________________________
activation_116 (Activation)  (None, 1690)              0
_________________________________________________________________
dropout_60 (Dropout)         (None, 1690)              0
_________________________________________________________________
batch_normalization_62 (Batc (None, 1690)              6760
_________________________________________________________________
dense_145 (Dense)            (None, 350)               591850
_________________________________________________________________
activation_117 (Activation)  (None, 350)               0
_________________________________________________________________
dense_146 (Dense)            (None, 890)               312390
_________________________________________________________________
activation_118 (Activation)  (None, 890)               0
_________________________________________________________________
dropout_61 (Dropout)         (None, 890)               0
_________________________________________________________________
dense_147 (Dense)            (None, 1690)              1505790
_________________________________________________________________
activation_119 (Activation)  (None, 1690)              0
_________________________________________________________________
dropout_62 (Dropout)         (None, 1690)              0
_________________________________________________________________
batch_normalization_63 (Batc (None, 1690)              6760
_________________________________________________________________
dense_148 (Dense)            (None, 1320)              2232120
_________________________________________________________________
activation_120 (Activation)  (None, 1320)              0
_________________________________________________________________
dense_149 (Dense)            (None, 10)                13210
=================================================================
Total params: 5,995,530
Trainable params: 5,988,770
Non-trainable params: 6,760
_________________________________________________________________
None
Model: "model_29"
_________________________________________________________________
Layer (type)                 Output Shape              Param #
=================================================================
inputs_basa (InputLayer)     [(None, 784)]             0
_________________________________________________________________
dense_150 (Dense)            (None, 610)               478850
_________________________________________________________________
activation_121 (Activation)  (None, 610)               0
_________________________________________________________________
dense_151 (Dense)            (None, 1800)              1099800
_________________________________________________________________
activation_122 (Activation)  (None, 1800)              0
_________________________________________________________________
dense_152 (Dense)            (None, 620)               1116620
_________________________________________________________________
activation_123 (Activation)  (None, 620)               0
_________________________________________________________________
dense_153 (Dense)            (None, 10)                6210
=================================================================
Total params: 2,701,480
Trainable params: 2,701,480
Non-trainable params: 0
_________________________________________________________________
None
Model: "model_30"
_________________________________________________________________
Layer (type)                 Output Shape              Param #
=================================================================
inputs_basa (InputLayer)     [(None, 784)]             0
_________________________________________________________________
dense_154 (Dense)            (None, 460)               361100
_________________________________________________________________
activation_124 (Activation)  (None, 460)               0
_________________________________________________________________
dropout_63 (Dropout)         (None, 460)               0
_________________________________________________________________
batch_normalization_64 (Batc (None, 460)               1840
_________________________________________________________________
dense_155 (Dense)            (None, 10)                4610
=================================================================
Total params: 367,550
Trainable params: 366,630
Non-trainable params: 920
_________________________________________________________________
None
Model: "model_31"
_________________________________________________________________
Layer (type)                 Output Shape              Param #
=================================================================
inputs_basa (InputLayer)     [(None, 784)]             0
_________________________________________________________________
dense_156 (Dense)            (None, 100)               78500
_________________________________________________________________
activation_125 (Activation)  (None, 100)               0
_________________________________________________________________
batch_normalization_65 (Batc (None, 100)               400
_________________________________________________________________
dense_157 (Dense)            (None, 390)               39390
_________________________________________________________________
activation_126 (Activation)  (None, 390)               0
_________________________________________________________________
dropout_64 (Dropout)         (None, 390)               0
_________________________________________________________________
batch_normalization_66 (Batc (None, 390)               1560
_________________________________________________________________
dense_158 (Dense)            (None, 10)                3910
=================================================================
Total params: 123,760
Trainable params: 122,780
Non-trainable params: 980
_________________________________________________________________
None
Model: "model_32"
_________________________________________________________________
Layer (type)                 Output Shape              Param #
=================================================================
inputs_basa (InputLayer)     [(None, 784)]             0
_________________________________________________________________
dense_159 (Dense)            (None, 1260)              989100
_________________________________________________________________
activation_127 (Activation)  (None, 1260)              0
_________________________________________________________________
batch_normalization_67 (Batc (None, 1260)              5040
_________________________________________________________________
dense_160 (Dense)            (None, 930)               1172730
_________________________________________________________________
activation_128 (Activation)  (None, 930)               0
_________________________________________________________________
batch_normalization_68 (Batc (None, 930)               3720
_________________________________________________________________
dense_161 (Dense)            (None, 1140)              1061340
_________________________________________________________________
activation_129 (Activation)  (None, 1140)              0
_________________________________________________________________
dense_162 (Dense)            (None, 430)               490630
_________________________________________________________________
activation_130 (Activation)  (None, 430)               0
_________________________________________________________________
dropout_65 (Dropout)         (None, 430)               0
_________________________________________________________________
dense_163 (Dense)            (None, 10)                4310
=================================================================
Total params: 3,726,870
Trainable params: 3,722,490
Non-trainable params: 4,380
_________________________________________________________________
None
Model: "model_33"
_________________________________________________________________
Layer (type)                 Output Shape              Param #
=================================================================
inputs_basa (InputLayer)     [(None, 784)]             0
_________________________________________________________________
dense_164 (Dense)            (None, 50)                39250
_________________________________________________________________
activation_131 (Activation)  (None, 50)                0
_________________________________________________________________
dropout_66 (Dropout)         (None, 50)                0
_________________________________________________________________
dense_165 (Dense)            (None, 240)               12240
_________________________________________________________________
activation_132 (Activation)  (None, 240)               0
_________________________________________________________________
dense_166 (Dense)            (None, 1100)              265100
_________________________________________________________________
activation_133 (Activation)  (None, 1100)              0
_________________________________________________________________
dropout_67 (Dropout)         (None, 1100)              0
_________________________________________________________________
dense_167 (Dense)            (None, 1800)              1981800
_________________________________________________________________
activation_134 (Activation)  (None, 1800)              0
_________________________________________________________________
dense_168 (Dense)            (None, 10)                18010
=================================================================
Total params: 2,316,400
Trainable params: 2,316,400
Non-trainable params: 0
_________________________________________________________________
None
Model: "model_34"
_________________________________________________________________
Layer (type)                 Output Shape              Param #
=================================================================
inputs_basa (InputLayer)     [(None, 784)]             0
_________________________________________________________________
dense_169 (Dense)            (None, 620)               486700
_________________________________________________________________
activation_135 (Activation)  (None, 620)               0
_________________________________________________________________
dense_170 (Dense)            (None, 10)                6210
=================================================================
Total params: 492,910
Trainable params: 492,910
Non-trainable params: 0
_________________________________________________________________
None
Model: "model_35"
_________________________________________________________________
Layer (type)                 Output Shape              Param #
=================================================================
inputs_basa (InputLayer)     [(None, 784)]             0
_________________________________________________________________
dense_171 (Dense)            (None, 1030)              808550
_________________________________________________________________
activation_136 (Activation)  (None, 1030)              0
_________________________________________________________________
dropout_68 (Dropout)         (None, 1030)              0
_________________________________________________________________
batch_normalization_69 (Batc (None, 1030)              4120
_________________________________________________________________
dense_172 (Dense)            (None, 10)                10310
=================================================================
Total params: 822,980
Trainable params: 820,920
Non-trainable params: 2,060
_________________________________________________________________
None
Model: "model_36"
_________________________________________________________________
Layer (type)                 Output Shape              Param #
=================================================================
inputs_basa (InputLayer)     [(None, 784)]             0
_________________________________________________________________
dense_173 (Dense)            (None, 1790)              1405150
_________________________________________________________________
activation_137 (Activation)  (None, 1790)              0
_________________________________________________________________
batch_normalization_70 (Batc (None, 1790)              7160
_________________________________________________________________
dense_174 (Dense)            (None, 1450)              2596950
_________________________________________________________________
activation_138 (Activation)  (None, 1450)              0
_________________________________________________________________
batch_normalization_71 (Batc (None, 1450)              5800
_________________________________________________________________
dense_175 (Dense)            (None, 1300)              1886300
_________________________________________________________________
activation_139 (Activation)  (None, 1300)              0
_________________________________________________________________
dense_176 (Dense)            (None, 1750)              2276750
_________________________________________________________________
activation_140 (Activation)  (None, 1750)              0
_________________________________________________________________
dropout_69 (Dropout)         (None, 1750)              0
_________________________________________________________________
batch_normalization_72 (Batc (None, 1750)              7000
_________________________________________________________________
dense_177 (Dense)            (None, 630)               1103130
_________________________________________________________________
activation_141 (Activation)  (None, 630)               0
_________________________________________________________________
dropout_70 (Dropout)         (None, 630)               0
_________________________________________________________________
batch_normalization_73 (Batc (None, 630)               2520
_________________________________________________________________
dense_178 (Dense)            (None, 780)               492180
_________________________________________________________________
activation_142 (Activation)  (None, 780)               0
_________________________________________________________________
batch_normalization_74 (Batc (None, 780)               3120
_________________________________________________________________
dense_179 (Dense)            (None, 10)                7810
=================================================================
Total params: 9,793,870
Trainable params: 9,781,070
Non-trainable params: 12,800
_________________________________________________________________
None
Model: "model_37"
_________________________________________________________________
Layer (type)                 Output Shape              Param #
=================================================================
inputs_basa (InputLayer)     [(None, 784)]             0
_________________________________________________________________
dense_180 (Dense)            (None, 720)               565200
_________________________________________________________________
activation_143 (Activation)  (None, 720)               0
_________________________________________________________________
batch_normalization_75 (Batc (None, 720)               2880
_________________________________________________________________
dense_181 (Dense)            (None, 980)               706580
_________________________________________________________________
activation_144 (Activation)  (None, 980)               0
_________________________________________________________________
dropout_71 (Dropout)         (None, 980)               0
_________________________________________________________________
batch_normalization_76 (Batc (None, 980)               3920
_________________________________________________________________
dense_182 (Dense)            (None, 10)                9810
=================================================================
Total params: 1,288,390
Trainable params: 1,284,990
Non-trainable params: 3,400
_________________________________________________________________
None
Model: "model_38"
_________________________________________________________________
Layer (type)                 Output Shape              Param #
=================================================================
inputs_basa (InputLayer)     [(None, 784)]             0
_________________________________________________________________
dense_183 (Dense)            (None, 660)               518100
_________________________________________________________________
activation_145 (Activation)  (None, 660)               0
_________________________________________________________________
dropout_72 (Dropout)         (None, 660)               0
_________________________________________________________________
dense_184 (Dense)            (None, 1870)              1236070
_________________________________________________________________
activation_146 (Activation)  (None, 1870)              0
_________________________________________________________________
dropout_73 (Dropout)         (None, 1870)              0
_________________________________________________________________
dense_185 (Dense)            (None, 210)               392910
_________________________________________________________________
activation_147 (Activation)  (None, 210)               0
_________________________________________________________________
dense_186 (Dense)            (None, 270)               56970
_________________________________________________________________
activation_148 (Activation)  (None, 270)               0
_________________________________________________________________
dropout_74 (Dropout)         (None, 270)               0
_________________________________________________________________
batch_normalization_77 (Batc (None, 270)               1080
_________________________________________________________________
dense_187 (Dense)            (None, 1010)              273710
_________________________________________________________________
activation_149 (Activation)  (None, 1010)              0
_________________________________________________________________
batch_normalization_78 (Batc (None, 1010)              4040
_________________________________________________________________
dense_188 (Dense)            (None, 270)               272970
_________________________________________________________________
activation_150 (Activation)  (None, 270)               0
_________________________________________________________________
dense_189 (Dense)            (None, 10)                2710
=================================================================
Total params: 2,758,560
Trainable params: 2,756,000
Non-trainable params: 2,560
_________________________________________________________________
None
Model: "model_39"
_________________________________________________________________
Layer (type)                 Output Shape              Param #
=================================================================
inputs_basa (InputLayer)     [(None, 784)]             0
_________________________________________________________________
dense_190 (Dense)            (None, 1960)              1538600
_________________________________________________________________
activation_151 (Activation)  (None, 1960)              0
_________________________________________________________________
dropout_75 (Dropout)         (None, 1960)              0
_________________________________________________________________
batch_normalization_79 (Batc (None, 1960)              7840
_________________________________________________________________
dense_191 (Dense)            (None, 1070)              2098270
_________________________________________________________________
activation_152 (Activation)  (None, 1070)              0
_________________________________________________________________
dropout_76 (Dropout)         (None, 1070)              0
_________________________________________________________________
dense_192 (Dense)            (None, 220)               235620
_________________________________________________________________
activation_153 (Activation)  (None, 220)               0
_________________________________________________________________
dropout_77 (Dropout)         (None, 220)               0
_________________________________________________________________
dense_193 (Dense)            (None, 1860)              411060
_________________________________________________________________
activation_154 (Activation)  (None, 1860)              0
_________________________________________________________________
dropout_78 (Dropout)         (None, 1860)              0
_________________________________________________________________
dense_194 (Dense)            (None, 10)                18610
=================================================================
Total params: 4,310,000
Trainable params: 4,306,080
Non-trainable params: 3,920
_________________________________________________________________
None
Model: "model_40"
_________________________________________________________________
Layer (type)                 Output Shape              Param #
=================================================================
inputs_basa (InputLayer)     [(None, 784)]             0
_________________________________________________________________
dense_195 (Dense)            (None, 1430)              1122550
_________________________________________________________________
activation_155 (Activation)  (None, 1430)              0
_________________________________________________________________
dropout_79 (Dropout)         (None, 1430)              0
_________________________________________________________________
batch_normalization_80 (Batc (None, 1430)              5720
_________________________________________________________________
dense_196 (Dense)            (None, 1080)              1545480
_________________________________________________________________
activation_156 (Activation)  (None, 1080)              0
_________________________________________________________________
dense_197 (Dense)            (None, 690)               745890
_________________________________________________________________
activation_157 (Activation)  (None, 690)               0
_________________________________________________________________
dropout_80 (Dropout)         (None, 690)               0
_________________________________________________________________
batch_normalization_81 (Batc (None, 690)               2760
_________________________________________________________________
dense_198 (Dense)            (None, 200)               138200
_________________________________________________________________
activation_158 (Activation)  (None, 200)               0
_________________________________________________________________
batch_normalization_82 (Batc (None, 200)               800
_________________________________________________________________
dense_199 (Dense)            (None, 10)                2010
=================================================================
Total params: 3,563,410
Trainable params: 3,558,770
Non-trainable params: 4,640
_________________________________________________________________
None
Train on 48000 samples, validate on 12000 samples
Epoch 1/10
Train on 48000 samples, validate on 12000 samples
Epoch 1/10
Train on 48000 samples, validate on 12000 samples
Epoch 1/10
…
 id = 16  val_accuracy = 0.9772499799728394
 id = 0  val_accuracy = 0.9754166603088379
 id = 2  val_accuracy = 0.9753333330154419
!!!!!!!!!!!!!!!!!!!!!!!!!!!!!!!!!!!!!!!!!!!!!!!!!!
!!!!!!!!!!!!!!!!  2   !!!!!!!!!!!!!!!!!!!!!!!!!!!!!!!!!!
Model: "model_41"
_________________________________________________________________
Layer (type)                 Output Shape              Param #
=================================================================
inputs_basa (InputLayer)     [(None, 784)]             0
_________________________________________________________________
dense_200 (Dense)            (None, 720)               565200
_________________________________________________________________
activation_159 (Activation)  (None, 720)               0
_________________________________________________________________
batch_normalization_83 (Batc (None, 720)               2880
_________________________________________________________________
dense_201 (Dense)            (None, 980)               706580
_________________________________________________________________
activation_160 (Activation)  (None, 980)               0
_________________________________________________________________
dropout_81 (Dropout)         (None, 980)               0
_________________________________________________________________
batch_normalization_84 (Batc (None, 980)               3920
_________________________________________________________________
dense_202 (Dense)            (None, 10)                9810
=================================================================
Total params: 1,288,390
Trainable params: 1,284,990
Non-trainable params: 3,400
_________________________________________________________________
None
Model: "model_42"
_________________________________________________________________
Layer (type)                 Output Shape              Param #
=================================================================
inputs_basa (InputLayer)     [(None, 784)]             0
_________________________________________________________________
dense_203 (Dense)            (None, 180)               141300
_________________________________________________________________
activation_161 (Activation)  (None, 180)               0
_________________________________________________________________
dropout_82 (Dropout)         (None, 180)               0
_________________________________________________________________
batch_normalization_85 (Batc (None, 180)               720
_________________________________________________________________
dense_204 (Dense)            (None, 10)                1810
=================================================================
Total params: 143,830
Trainable params: 143,470
Non-trainable params: 360
_________________________________________________________________
None
Model: "model_43"
_________________________________________________________________
Layer (type)                 Output Shape              Param #
=================================================================
inputs_basa (InputLayer)     [(None, 784)]             0
_________________________________________________________________
dense_205 (Dense)            (None, 110)               86350
_________________________________________________________________
activation_162 (Activation)  (None, 110)               0
_________________________________________________________________
dropout_83 (Dropout)         (None, 110)               0
_________________________________________________________________
batch_normalization_86 (Batc (None, 110)               440
_________________________________________________________________
dense_206 (Dense)            (None, 1520)              168720
_________________________________________________________________
activation_163 (Activation)  (None, 1520)              0
_________________________________________________________________
batch_normalization_87 (Batc (None, 1520)              6080
_________________________________________________________________
dense_207 (Dense)            (None, 10)                15210
=================================================================
Total params: 276,800
Trainable params: 273,540
Non-trainable params: 3,260
_________________________________________________________________
None
Model: "model_44"
_________________________________________________________________
Layer (type)                 Output Shape              Param #
=================================================================
inputs_basa (InputLayer)     [(None, 784)]             0
_________________________________________________________________
dense_208 (Dense)            (None, 975)               765375
_________________________________________________________________
activation_164 (Activation)  (None, 975)               0
_________________________________________________________________
batch_normalization_88 (Batc (None, 975)               3900
_________________________________________________________________
dense_209 (Dense)            (None, 632)               616832
_________________________________________________________________
activation_165 (Activation)  (None, 632)               0
_________________________________________________________________
dropout_84 (Dropout)         (None, 632)               0
_________________________________________________________________
batch_normalization_89 (Batc (None, 632)               2528
_________________________________________________________________
dense_210 (Dense)            (None, 10)                6330
=================================================================
Total params: 1,394,965
Trainable params: 1,391,751
Non-trainable params: 3,214
_________________________________________________________________
None
Model: "model_45"
_________________________________________________________________
Layer (type)                 Output Shape              Param #
=================================================================
inputs_basa (InputLayer)     [(None, 784)]             0
_________________________________________________________________
dense_211 (Dense)            (None, 234)               183690
_________________________________________________________________
activation_166 (Activation)  (None, 234)               0
_________________________________________________________________
dropout_85 (Dropout)         (None, 234)               0
_________________________________________________________________
batch_normalization_90 (Batc (None, 234)               936
_________________________________________________________________
dense_212 (Dense)            (None, 10)                2350
=================================================================
Total params: 186,976
Trainable params: 186,508
Non-trainable params: 468
_________________________________________________________________
None
Model: "model_46"
_________________________________________________________________
Layer (type)                 Output Shape              Param #
=================================================================
inputs_basa (InputLayer)     [(None, 784)]             0
_________________________________________________________________
dense_213 (Dense)            (None, 1110)              871350
_________________________________________________________________
activation_167 (Activation)  (None, 1110)              0
_________________________________________________________________
dense_214 (Dense)            (None, 1490)              1655390
_________________________________________________________________
activation_168 (Activation)  (None, 1490)              0
_________________________________________________________________
dropout_86 (Dropout)         (None, 1490)              0
_________________________________________________________________
batch_normalization_91 (Batc (None, 1490)              5960
_________________________________________________________________
dense_215 (Dense)            (None, 10)                14910
=================================================================
Total params: 2,547,610
Trainable params: 2,544,630
Non-trainable params: 2,980
_________________________________________________________________
None
Model: "model_47"
_________________________________________________________________
Layer (type)                 Output Shape              Param #
=================================================================
inputs_basa (InputLayer)     [(None, 784)]             0
_________________________________________________________________
dense_216 (Dense)            (None, 1700)              1334500
_________________________________________________________________
activation_169 (Activation)  (None, 1700)              0
_________________________________________________________________
dropout_87 (Dropout)         (None, 1700)              0
_________________________________________________________________
dense_217 (Dense)            (None, 10)                17010
=================================================================
Total params: 1,351,510
Trainable params: 1,351,510
Non-trainable params: 0
_________________________________________________________________
None
Model: "model_48"
_________________________________________________________________
Layer (type)                 Output Shape              Param #
=================================================================
inputs_basa (InputLayer)     [(None, 784)]             0
_________________________________________________________________
dense_218 (Dense)            (None, 1880)              1475800
_________________________________________________________________
activation_170 (Activation)  (None, 1880)              0
_________________________________________________________________
dropout_88 (Dropout)         (None, 1880)              0
_________________________________________________________________
batch_normalization_92 (Batc (None, 1880)              7520
_________________________________________________________________
dense_219 (Dense)            (None, 10)                18810
=================================================================
Total params: 1,502,130
Trainable params: 1,498,370
Non-trainable params: 3,760
_________________________________________________________________
None
Model: "model_49"
_________________________________________________________________
Layer (type)                 Output Shape              Param #
=================================================================
inputs_basa (InputLayer)     [(None, 784)]             0
_________________________________________________________________
dense_220 (Dense)            (None, 1090)              855650
_________________________________________________________________
activation_171 (Activation)  (None, 1090)              0
_________________________________________________________________
dropout_89 (Dropout)         (None, 1090)              0
_________________________________________________________________
batch_normalization_93 (Batc (None, 1090)              4360
_________________________________________________________________
dense_221 (Dense)            (None, 1330)              1451030
_________________________________________________________________
activation_172 (Activation)  (None, 1330)              0
_________________________________________________________________
dropout_90 (Dropout)         (None, 1330)              0
_________________________________________________________________
dense_222 (Dense)            (None, 10)                13310
=================================================================
Total params: 2,324,350
Trainable params: 2,322,170
Non-trainable params: 2,180
_________________________________________________________________
None
Model: "model_50"
_________________________________________________________________
Layer (type)                 Output Shape              Param #
=================================================================
inputs_basa (InputLayer)     [(None, 784)]             0
_________________________________________________________________
dense_223 (Dense)            (None, 690)               541650
_________________________________________________________________
activation_173 (Activation)  (None, 690)               0
_________________________________________________________________
dropout_91 (Dropout)         (None, 690)               0
_________________________________________________________________
dense_224 (Dense)            (None, 480)               331680
_________________________________________________________________
activation_174 (Activation)  (None, 480)               0
_________________________________________________________________
batch_normalization_94 (Batc (None, 480)               1920
_________________________________________________________________
dense_225 (Dense)            (None, 10)                4810
=================================================================
Total params: 880,060
Trainable params: 879,100
Non-trainable params: 960
_________________________________________________________________
None
Model: "model_51"
_________________________________________________________________
Layer (type)                 Output Shape              Param #
=================================================================
inputs_basa (InputLayer)     [(None, 784)]             0
_________________________________________________________________
dense_226 (Dense)            (None, 1210)              949850
_________________________________________________________________
activation_175 (Activation)  (None, 1210)              0
_________________________________________________________________
batch_normalization_95 (Batc (None, 1210)              4840
_________________________________________________________________
dense_227 (Dense)            (None, 1080)              1307880
_________________________________________________________________
activation_176 (Activation)  (None, 1080)              0
_________________________________________________________________
dense_228 (Dense)            (None, 10)                10810
=================================================================
Total params: 2,273,380
Trainable params: 2,270,960
Non-trainable params: 2,420
_________________________________________________________________
None
Model: "model_52"
_________________________________________________________________
Layer (type)                 Output Shape              Param #
=================================================================
inputs_basa (InputLayer)     [(None, 784)]             0
_________________________________________________________________
dense_229 (Dense)            (None, 250)               196250
_________________________________________________________________
activation_177 (Activation)  (None, 250)               0
_________________________________________________________________
batch_normalization_96 (Batc (None, 250)               1000
_________________________________________________________________
dense_230 (Dense)            (None, 400)               100400
_________________________________________________________________
activation_178 (Activation)  (None, 400)               0
_________________________________________________________________
dense_231 (Dense)            (None, 10)                4010
=================================================================
Total params: 301,660
Trainable params: 301,160
Non-trainable params: 500
_________________________________________________________________
None
Model: "model_53"
_________________________________________________________________
Layer (type)                 Output Shape              Param #
=================================================================
inputs_basa (InputLayer)     [(None, 784)]             0
_________________________________________________________________
dense_232 (Dense)            (None, 1920)              1507200
_________________________________________________________________
activation_179 (Activation)  (None, 1920)              0
_________________________________________________________________
dropout_92 (Dropout)         (None, 1920)              0
_________________________________________________________________
dense_233 (Dense)            (None, 1480)              2843080
_________________________________________________________________
activation_180 (Activation)  (None, 1480)              0
_________________________________________________________________
batch_normalization_97 (Batc (None, 1480)              5920
_________________________________________________________________
dense_234 (Dense)            (None, 10)                14810
=================================================================
Total params: 4,371,010
Trainable params: 4,368,050
Non-trainable params: 2,960
_________________________________________________________________
None
Model: "model_54"
_________________________________________________________________
Layer (type)                 Output Shape              Param #
=================================================================
inputs_basa (InputLayer)     [(None, 784)]             0
_________________________________________________________________
dense_235 (Dense)            (None, 630)               494550
_________________________________________________________________
activation_181 (Activation)  (None, 630)               0
_________________________________________________________________
batch_normalization_98 (Batc (None, 630)               2520
_________________________________________________________________
dense_236 (Dense)            (None, 10)                6310
=================================================================
Total params: 503,380
Trainable params: 502,120
Non-trainable params: 1,260
_________________________________________________________________
None
Model: "model_55"
_________________________________________________________________
Layer (type)                 Output Shape              Param #
=================================================================
inputs_basa (InputLayer)     [(None, 784)]             0
_________________________________________________________________
dense_237 (Dense)            (None, 1050)              824250
_________________________________________________________________
activation_182 (Activation)  (None, 1050)              0
_________________________________________________________________
dropout_93 (Dropout)         (None, 1050)              0
_________________________________________________________________
batch_normalization_99 (Batc (None, 1050)              4200
_________________________________________________________________
dense_238 (Dense)            (None, 10)                10510
=================================================================
Total params: 838,960
Trainable params: 836,860
Non-trainable params: 2,100
_________________________________________________________________
None
Model: "model_56"
_________________________________________________________________
Layer (type)                 Output Shape              Param #
=================================================================
inputs_basa (InputLayer)     [(None, 784)]             0
_________________________________________________________________
dense_239 (Dense)            (None, 50)                39250
_________________________________________________________________
activation_183 (Activation)  (None, 50)                0
_________________________________________________________________
dense_240 (Dense)            (None, 10)                510
=================================================================
Total params: 39,760
Trainable params: 39,760
Non-trainable params: 0
_________________________________________________________________
None
Model: "model_57"
_________________________________________________________________
Layer (type)                 Output Shape              Param #
=================================================================
inputs_basa (InputLayer)     [(None, 784)]             0
_________________________________________________________________
dense_241 (Dense)            (None, 1220)              957700
_________________________________________________________________
activation_184 (Activation)  (None, 1220)              0
_________________________________________________________________
dropout_94 (Dropout)         (None, 1220)              0
_________________________________________________________________
batch_normalization_100 (Bat (None, 1220)              4880
_________________________________________________________________
dense_242 (Dense)            (None, 10)                12210
=================================================================
Total params: 974,790
Trainable params: 972,350
Non-trainable params: 2,440
_________________________________________________________________
None
Model: "model_58"
_________________________________________________________________
Layer (type)                 Output Shape              Param #
=================================================================
inputs_basa (InputLayer)     [(None, 784)]             0
_________________________________________________________________
dense_243 (Dense)            (None, 640)               502400
_________________________________________________________________
activation_185 (Activation)  (None, 640)               0
_________________________________________________________________
dense_244 (Dense)            (None, 10)                6410
=================================================================
Total params: 508,810
Trainable params: 508,810
Non-trainable params: 0
_________________________________________________________________
None
Model: "model_59"
_________________________________________________________________
Layer (type)                 Output Shape              Param #
=================================================================
inputs_basa (InputLayer)     [(None, 784)]             0
_________________________________________________________________
dense_245 (Dense)            (None, 480)               376800
_________________________________________________________________
activation_186 (Activation)  (None, 480)               0
_________________________________________________________________
batch_normalization_101 (Bat (None, 480)               1920
_________________________________________________________________
dense_246 (Dense)            (None, 10)                4810
=================================================================
Total params: 383,530
Trainable params: 382,570
Non-trainable params: 960
_________________________________________________________________
None
Model: "model_60"
_________________________________________________________________
Layer (type)                 Output Shape              Param #
=================================================================
inputs_basa (InputLayer)     [(None, 784)]             0
_________________________________________________________________
dense_247 (Dense)            (None, 90)                70650
_________________________________________________________________
activation_187 (Activation)  (None, 90)                0
_________________________________________________________________
dense_248 (Dense)            (None, 1380)              125580
_________________________________________________________________
activation_188 (Activation)  (None, 1380)              0
_________________________________________________________________
batch_normalization_102 (Bat (None, 1380)              5520
_________________________________________________________________
dense_249 (Dense)            (None, 10)                13810
=================================================================
Total params: 215,560
Trainable params: 212,800
Non-trainable params: 2,760
_________________________________________________________________
None
Train on 48000 samples, validate on 12000 samples
Epoch 1/10
Train on 48000 samples, validate on 12000 samples
Epoch 1/10
Train on 48000 samples, validate on 12000 samples
Train on 48000 samples, validate on 12000 samples
…
 id = 14  val_accuracy = 0.9791666865348816
 id = 7  val_accuracy = 0.9785000085830688
 id = 4  val_accuracy = 0.9784166812896729
!!!!!!!!!!!!!!!!!!!!!!!!!!!!!!!!!!!!!!!!!!!!!!!!!!
!!!!!!!!!!!!!!!!  3   !!!!!!!!!!!!!!!!!!!!!!!!!!!!!!!!!!
Model: "model_61"
_________________________________________________________________
Layer (type)                 Output Shape              Param #
=================================================================
inputs_basa (InputLayer)     [(None, 784)]             0
_________________________________________________________________
dense_250 (Dense)            (None, 1050)              824250
_________________________________________________________________
activation_189 (Activation)  (None, 1050)              0
_________________________________________________________________
dropout_95 (Dropout)         (None, 1050)              0
_________________________________________________________________
batch_normalization_103 (Bat (None, 1050)              4200
_________________________________________________________________
dense_251 (Dense)            (None, 10)                10510
=================================================================
Total params: 838,960
Trainable params: 836,860
Non-trainable params: 2,100
_________________________________________________________________
None
Model: "model_62"
_________________________________________________________________
Layer (type)                 Output Shape              Param #
=================================================================
inputs_basa (InputLayer)     [(None, 784)]             0
_________________________________________________________________
dense_252 (Dense)            (None, 1880)              1475800
_________________________________________________________________
activation_190 (Activation)  (None, 1880)              0
_________________________________________________________________
dropout_96 (Dropout)         (None, 1880)              0
_________________________________________________________________
batch_normalization_104 (Bat (None, 1880)              7520
_________________________________________________________________
dense_253 (Dense)            (None, 10)                18810
=================================================================
Total params: 1,502,130
Trainable params: 1,498,370
Non-trainable params: 3,760
_________________________________________________________________
None
Model: "model_63"
_________________________________________________________________
Layer (type)                 Output Shape              Param #
=================================================================
inputs_basa (InputLayer)     [(None, 784)]             0
_________________________________________________________________
dense_254 (Dense)            (None, 234)               183690
_________________________________________________________________
activation_191 (Activation)  (None, 234)               0
_________________________________________________________________
dropout_97 (Dropout)         (None, 234)               0
_________________________________________________________________
batch_normalization_105 (Bat (None, 234)               936
_________________________________________________________________
dense_255 (Dense)            (None, 10)                2350
=================================================================
Total params: 186,976
Trainable params: 186,508
Non-trainable params: 468
_________________________________________________________________
None
Model: "model_64"
_________________________________________________________________
Layer (type)                 Output Shape              Param #
=================================================================
inputs_basa (InputLayer)     [(None, 784)]             0
_________________________________________________________________
dense_256 (Dense)            (None, 1542)              1210470
_________________________________________________________________
activation_192 (Activation)  (None, 1542)              0
_________________________________________________________________
dropout_98 (Dropout)         (None, 1542)              0
_________________________________________________________________
batch_normalization_106 (Bat (None, 1542)              6168
_________________________________________________________________
dense_257 (Dense)            (None, 10)                15430
=================================================================
Total params: 1,232,068
Trainable params: 1,228,984
Non-trainable params: 3,084
_________________________________________________________________
None
Model: "model_65"
_________________________________________________________________
Layer (type)                 Output Shape              Param #
=================================================================
inputs_basa (InputLayer)     [(None, 784)]             0
_________________________________________________________________
dense_258 (Dense)            (None, 1554)              1219890
_________________________________________________________________
activation_193 (Activation)  (None, 1554)              0
_________________________________________________________________
dropout_99 (Dropout)         (None, 1554)              0
_________________________________________________________________
batch_normalization_107 (Bat (None, 1554)              6216
_________________________________________________________________
dense_259 (Dense)            (None, 10)                15550
=================================================================
Total params: 1,241,656
Trainable params: 1,238,548
Non-trainable params: 3,108
_________________________________________________________________
None
Model: "model_66"
_________________________________________________________________
Layer (type)                 Output Shape              Param #
=================================================================
inputs_basa (InputLayer)     [(None, 784)]             0
_________________________________________________________________
dense_260 (Dense)            (None, 1210)              949850
_________________________________________________________________
activation_194 (Activation)  (None, 1210)              0
_________________________________________________________________
batch_normalization_108 (Bat (None, 1210)              4840
_________________________________________________________________
dense_261 (Dense)            (None, 10)                12110
=================================================================
Total params: 966,800
Trainable params: 964,380
Non-trainable params: 2,420
_________________________________________________________________
None
Model: "model_67"
_________________________________________________________________
Layer (type)                 Output Shape              Param #
=================================================================
inputs_basa (InputLayer)     [(None, 784)]             0
_________________________________________________________________
dense_262 (Dense)            (None, 390)               306150
_________________________________________________________________
activation_195 (Activation)  (None, 390)               0
_________________________________________________________________
batch_normalization_109 (Bat (None, 390)               1560
_________________________________________________________________
dense_263 (Dense)            (None, 10)                3910
=================================================================
Total params: 311,620
Trainable params: 310,840
Non-trainable params: 780
_________________________________________________________________
None
Model: "model_68"
_________________________________________________________________
Layer (type)                 Output Shape              Param #
=================================================================
inputs_basa (InputLayer)     [(None, 784)]             0
_________________________________________________________________
dense_264 (Dense)            (None, 1210)              949850
_________________________________________________________________
activation_196 (Activation)  (None, 1210)              0
_________________________________________________________________
dropout_100 (Dropout)        (None, 1210)              0
_________________________________________________________________
dense_265 (Dense)            (None, 10)                12110
=================================================================
Total params: 961,960
Trainable params: 961,960
Non-trainable params: 0
_________________________________________________________________
None
Model: "model_69"
_________________________________________________________________
Layer (type)                 Output Shape              Param #
=================================================================
inputs_basa (InputLayer)     [(None, 784)]             0
_________________________________________________________________
dense_266 (Dense)            (None, 1280)              1004800
_________________________________________________________________
activation_197 (Activation)  (None, 1280)              0
_________________________________________________________________
dropout_101 (Dropout)        (None, 1280)              0
_________________________________________________________________
dense_267 (Dense)            (None, 10)                12810
=================================================================
Total params: 1,017,610
Trainable params: 1,017,610
Non-trainable params: 0
_________________________________________________________________
None
Model: "model_70"
_________________________________________________________________
Layer (type)                 Output Shape              Param #
=================================================================
inputs_basa (InputLayer)     [(None, 784)]             0
_________________________________________________________________
dense_268 (Dense)            (None, 1220)              957700
_________________________________________________________________
activation_198 (Activation)  (None, 1220)              0
_________________________________________________________________
dropout_102 (Dropout)        (None, 1220)              0
_________________________________________________________________
batch_normalization_110 (Bat (None, 1220)              4880
_________________________________________________________________
dense_269 (Dense)            (None, 10)                12210
=================================================================
Total params: 974,790
Trainable params: 972,350
Non-trainable params: 2,440
_________________________________________________________________
None
Model: "model_71"
_________________________________________________________________
Layer (type)                 Output Shape              Param #
=================================================================
inputs_basa (InputLayer)     [(None, 784)]             0
_________________________________________________________________
dense_270 (Dense)            (None, 170)               133450
_________________________________________________________________
activation_199 (Activation)  (None, 170)               0
_________________________________________________________________
dropout_103 (Dropout)        (None, 170)               0
_________________________________________________________________
batch_normalization_111 (Bat (None, 170)               680
_________________________________________________________________
dense_271 (Dense)            (None, 10)                1710
=================================================================
Total params: 135,840
Trainable params: 135,500
Non-trainable params: 340
_________________________________________________________________
None
Model: "model_72"
_________________________________________________________________
Layer (type)                 Output Shape              Param #
=================================================================
inputs_basa (InputLayer)     [(None, 784)]             0
_________________________________________________________________
dense_272 (Dense)            (None, 1990)              1562150
_________________________________________________________________
activation_200 (Activation)  (None, 1990)              0
_________________________________________________________________
dense_273 (Dense)            (None, 10)                19910
=================================================================
Total params: 1,582,060
Trainable params: 1,582,060
Non-trainable params: 0
_________________________________________________________________
None
Model: "model_73"
_________________________________________________________________
Layer (type)                 Output Shape              Param #
=================================================================
inputs_basa (InputLayer)     [(None, 784)]             0
_________________________________________________________________
dense_274 (Dense)            (None, 840)               659400
_________________________________________________________________
activation_201 (Activation)  (None, 840)               0
_________________________________________________________________
dropout_104 (Dropout)        (None, 840)               0
_________________________________________________________________
batch_normalization_112 (Bat (None, 840)               3360
_________________________________________________________________
dense_275 (Dense)            (None, 10)                8410
=================================================================
Total params: 671,170
Trainable params: 669,490
Non-trainable params: 1,680
_________________________________________________________________
None
Model: "model_74"
_________________________________________________________________
Layer (type)                 Output Shape              Param #
=================================================================
inputs_basa (InputLayer)     [(None, 784)]             0
_________________________________________________________________
dense_276 (Dense)            (None, 60)                47100
_________________________________________________________________
activation_202 (Activation)  (None, 60)                0
_________________________________________________________________
batch_normalization_113 (Bat (None, 60)                240
_________________________________________________________________
dense_277 (Dense)            (None, 10)                610
=================================================================
Total params: 47,950
Trainable params: 47,830
Non-trainable params: 120
_________________________________________________________________
None
Model: "model_75"
_________________________________________________________________
Layer (type)                 Output Shape              Param #
=================================================================
inputs_basa (InputLayer)     [(None, 784)]             0
_________________________________________________________________
dense_278 (Dense)            (None, 1880)              1475800
_________________________________________________________________
activation_203 (Activation)  (None, 1880)              0
_________________________________________________________________
dropout_105 (Dropout)        (None, 1880)              0
_________________________________________________________________
dense_279 (Dense)            (None, 10)                18810
=================================================================
Total params: 1,494,610
Trainable params: 1,494,610
Non-trainable params: 0
_________________________________________________________________
None
Model: "model_76"
_________________________________________________________________
Layer (type)                 Output Shape              Param #
=================================================================
inputs_basa (InputLayer)     [(None, 784)]             0
_________________________________________________________________
dense_280 (Dense)            (None, 1790)              1405150
_________________________________________________________________
activation_204 (Activation)  (None, 1790)              0
_________________________________________________________________
batch_normalization_114 (Bat (None, 1790)              7160
_________________________________________________________________
dense_281 (Dense)            (None, 10)                17910
=================================================================
Total params: 1,430,220
Trainable params: 1,426,640
Non-trainable params: 3,580
_________________________________________________________________
None
Model: "model_77"
_________________________________________________________________
Layer (type)                 Output Shape              Param #
=================================================================
inputs_basa (InputLayer)     [(None, 784)]             0
_________________________________________________________________
dense_282 (Dense)            (None, 860)               675100
_________________________________________________________________
activation_205 (Activation)  (None, 860)               0
_________________________________________________________________
dense_283 (Dense)            (None, 10)                8610
=================================================================
Total params: 683,710
Trainable params: 683,710
Non-trainable params: 0
_________________________________________________________________
None
Model: "model_78"
_________________________________________________________________
Layer (type)                 Output Shape              Param #
=================================================================
inputs_basa (InputLayer)     [(None, 784)]             0
_________________________________________________________________
dense_284 (Dense)            (None, 740)               580900
_________________________________________________________________
activation_206 (Activation)  (None, 740)               0
_________________________________________________________________
dense_285 (Dense)            (None, 10)                7410
=================================================================
Total params: 588,310
Trainable params: 588,310
Non-trainable params: 0
_________________________________________________________________
None
Model: "model_79"
_________________________________________________________________
Layer (type)                 Output Shape              Param #
=================================================================
inputs_basa (InputLayer)     [(None, 784)]             0
_________________________________________________________________
dense_286 (Dense)            (None, 340)               266900
_________________________________________________________________
activation_207 (Activation)  (None, 340)               0
_________________________________________________________________
batch_normalization_115 (Bat (None, 340)               1360
_________________________________________________________________
dense_287 (Dense)            (None, 10)                3410
=================================================================
Total params: 271,670
Trainable params: 270,990
Non-trainable params: 680
_________________________________________________________________
None
Model: "model_80"
_________________________________________________________________
Layer (type)                 Output Shape              Param #
=================================================================
inputs_basa (InputLayer)     [(None, 784)]             0
_________________________________________________________________
dense_288 (Dense)            (None, 1610)              1263850
_________________________________________________________________
activation_208 (Activation)  (None, 1610)              0
_________________________________________________________________
dense_289 (Dense)            (None, 10)                16110
=================================================================
Total params: 1,279,960
Trainable params: 1,279,960
Non-trainable params: 0
_________________________________________________________________
None
Train on 48000 samples, validate on 12000 samples
Epoch 1/10
Train on 48000 samples, validate on 12000 samples
Epoch 1/10
Train on 48000 samples, validate on 12000 samples
Train on 48000 samples, validate on 12000 samplesEpoch 1/10
…
 id = 0  val_accuracy = 0.9804999828338623
 id = 1  val_accuracy = 0.9797499775886536
 id = 4  val_accuracy = 0.9794999957084656
!!!!!!!!!!!!!!!!!!!!!!!!!!!!!!!!!!!!!!!!!!!!!!!!!!
!!!!!!!!!!!!!!!!  4   !!!!!!!!!!!!!!!!!!!!!!!!!!!!!!!!!!
Model: "model_81"
_________________________________________________________________
Layer (type)                 Output Shape              Param #
=================================================================
inputs_basa (InputLayer)     [(None, 784)]             0
_________________________________________________________________
dense_290 (Dense)            (None, 1050)              824250
_________________________________________________________________
activation_209 (Activation)  (None, 1050)              0
_________________________________________________________________
dropout_106 (Dropout)        (None, 1050)              0
_________________________________________________________________
batch_normalization_116 (Bat (None, 1050)              4200
_________________________________________________________________
dense_291 (Dense)            (None, 10)                10510
=================================================================
Total params: 838,960
Trainable params: 836,860
Non-trainable params: 2,100
_________________________________________________________________
None
Model: "model_82"
_________________________________________________________________
Layer (type)                 Output Shape              Param #
=================================================================
inputs_basa (InputLayer)     [(None, 784)]             0
_________________________________________________________________
dense_292 (Dense)            (None, 1880)              1475800
_________________________________________________________________
activation_210 (Activation)  (None, 1880)              0
_________________________________________________________________
dropout_107 (Dropout)        (None, 1880)              0
_________________________________________________________________
batch_normalization_117 (Bat (None, 1880)              7520
_________________________________________________________________
dense_293 (Dense)            (None, 10)                18810
=================================================================
Total params: 1,502,130
Trainable params: 1,498,370
Non-trainable params: 3,760
_________________________________________________________________
None
Model: "model_83"
_________________________________________________________________
Layer (type)                 Output Shape              Param #
=================================================================
inputs_basa (InputLayer)     [(None, 784)]             0
_________________________________________________________________
dense_294 (Dense)            (None, 1554)              1219890
_________________________________________________________________
activation_211 (Activation)  (None, 1554)              0
_________________________________________________________________
dropout_108 (Dropout)        (None, 1554)              0
_________________________________________________________________
batch_normalization_118 (Bat (None, 1554)              6216
_________________________________________________________________
dense_295 (Dense)            (None, 10)                15550
=================================================================
Total params: 1,241,656
Trainable params: 1,238,548
Non-trainable params: 3,108
_________________________________________________________________
None
Model: "model_84"
_________________________________________________________________
Layer (type)                 Output Shape              Param #
=================================================================
inputs_basa (InputLayer)     [(None, 784)]             0
_________________________________________________________________
dense_296 (Dense)            (None, 1103)              865855
_________________________________________________________________
activation_212 (Activation)  (None, 1103)              0
_________________________________________________________________
dropout_109 (Dropout)        (None, 1103)              0
_________________________________________________________________
batch_normalization_119 (Bat (None, 1103)              4412
_________________________________________________________________
dense_297 (Dense)            (None, 10)                11040
=================================================================
Total params: 881,307
Trainable params: 879,101
Non-trainable params: 2,206
_________________________________________________________________
None
Model: "model_85"
_________________________________________________________________
Layer (type)                 Output Shape              Param #
=================================================================
inputs_basa (InputLayer)     [(None, 784)]             0
_________________________________________________________________
dense_298 (Dense)            (None, 1511)              1186135
_________________________________________________________________
activation_213 (Activation)  (None, 1511)              0
_________________________________________________________________
dropout_110 (Dropout)        (None, 1511)              0
_________________________________________________________________
batch_normalization_120 (Bat (None, 1511)              6044
_________________________________________________________________
dense_299 (Dense)            (None, 10)                15120
=================================================================
Total params: 1,207,299
Trainable params: 1,204,277
Non-trainable params: 3,022
_________________________________________________________________
None
Model: "model_86"
_________________________________________________________________
Layer (type)                 Output Shape              Param #
=================================================================
inputs_basa (InputLayer)     [(None, 784)]             0
_________________________________________________________________
dense_300 (Dense)            (None, 1820)              1428700
_________________________________________________________________
activation_214 (Activation)  (None, 1820)              0
_________________________________________________________________
dropout_111 (Dropout)        (None, 1820)              0
_________________________________________________________________
dense_301 (Dense)            (None, 10)                18210
=================================================================
Total params: 1,446,910
Trainable params: 1,446,910
Non-trainable params: 0
_________________________________________________________________
None
Model: "model_87"
_________________________________________________________________
Layer (type)                 Output Shape              Param #
=================================================================
inputs_basa (InputLayer)     [(None, 784)]             0
_________________________________________________________________
dense_302 (Dense)            (None, 910)               714350
_________________________________________________________________
activation_215 (Activation)  (None, 910)               0
_________________________________________________________________
dropout_112 (Dropout)        (None, 910)               0
_________________________________________________________________
dense_303 (Dense)            (None, 10)                9110
=================================================================
Total params: 723,460
Trainable params: 723,460
Non-trainable params: 0
_________________________________________________________________
None
Model: "model_88"
_________________________________________________________________
Layer (type)                 Output Shape              Param #
=================================================================
inputs_basa (InputLayer)     [(None, 784)]             0
_________________________________________________________________
dense_304 (Dense)            (None, 880)               690800
_________________________________________________________________
activation_216 (Activation)  (None, 880)               0
_________________________________________________________________
batch_normalization_121 (Bat (None, 880)               3520
_________________________________________________________________
dense_305 (Dense)            (None, 10)                8810
=================================================================
Total params: 703,130
Trainable params: 701,370
Non-trainable params: 1,760
_________________________________________________________________
None
Model: "model_89"
_________________________________________________________________
Layer (type)                 Output Shape              Param #
=================================================================
inputs_basa (InputLayer)     [(None, 784)]             0
_________________________________________________________________
dense_306 (Dense)            (None, 1570)              1232450
_________________________________________________________________
activation_217 (Activation)  (None, 1570)              0
_________________________________________________________________
dropout_113 (Dropout)        (None, 1570)              0
_________________________________________________________________
dense_307 (Dense)            (None, 10)                15710
=================================================================
Total params: 1,248,160
Trainable params: 1,248,160
Non-trainable params: 0
_________________________________________________________________
None
Model: "model_90"
_________________________________________________________________
Layer (type)                 Output Shape              Param #
=================================================================
inputs_basa (InputLayer)     [(None, 784)]             0
_________________________________________________________________
dense_308 (Dense)            (None, 1830)              1436550
_________________________________________________________________
activation_218 (Activation)  (None, 1830)              0
_________________________________________________________________
dropout_114 (Dropout)        (None, 1830)              0
_________________________________________________________________
batch_normalization_122 (Bat (None, 1830)              7320
_________________________________________________________________
dense_309 (Dense)            (None, 10)                18310
=================================================================
Total params: 1,462,180
Trainable params: 1,458,520
Non-trainable params: 3,660
_________________________________________________________________
None
Model: "model_91"
_________________________________________________________________
Layer (type)                 Output Shape              Param #
=================================================================
inputs_basa (InputLayer)     [(None, 784)]             0
_________________________________________________________________
dense_310 (Dense)            (None, 1810)              1420850
_________________________________________________________________
activation_219 (Activation)  (None, 1810)              0
_________________________________________________________________
dropout_115 (Dropout)        (None, 1810)              0
_________________________________________________________________
batch_normalization_123 (Bat (None, 1810)              7240
_________________________________________________________________
dense_311 (Dense)            (None, 10)                18110
=================================================================
Total params: 1,446,200
Trainable params: 1,442,580
Non-trainable params: 3,620
_________________________________________________________________
None
Model: "model_92"
_________________________________________________________________
Layer (type)                 Output Shape              Param #
=================================================================
inputs_basa (InputLayer)     [(None, 784)]             0
_________________________________________________________________
dense_312 (Dense)            (None, 1250)              981250
_________________________________________________________________
activation_220 (Activation)  (None, 1250)              0
_________________________________________________________________
dropout_116 (Dropout)        (None, 1250)              0
_________________________________________________________________
batch_normalization_124 (Bat (None, 1250)              5000
_________________________________________________________________
dense_313 (Dense)            (None, 10)                12510
=================================================================
Total params: 998,760
Trainable params: 996,260
Non-trainable params: 2,500
_________________________________________________________________
None
Model: "model_93"
_________________________________________________________________
Layer (type)                 Output Shape              Param #
=================================================================
inputs_basa (InputLayer)     [(None, 784)]             0
_________________________________________________________________
dense_314 (Dense)            (None, 1800)              1413000
_________________________________________________________________
activation_221 (Activation)  (None, 1800)              0
_________________________________________________________________
batch_normalization_125 (Bat (None, 1800)              7200
_________________________________________________________________
dense_315 (Dense)            (None, 10)                18010
=================================================================
Total params: 1,438,210
Trainable params: 1,434,610
Non-trainable params: 3,600
_________________________________________________________________
None
Model: "model_94"
_________________________________________________________________
Layer (type)                 Output Shape              Param #
=================================================================
inputs_basa (InputLayer)     [(None, 784)]             0
_________________________________________________________________
dense_316 (Dense)            (None, 990)               777150
_________________________________________________________________
activation_222 (Activation)  (None, 990)               0
_________________________________________________________________
batch_normalization_126 (Bat (None, 990)               3960
_________________________________________________________________
dense_317 (Dense)            (None, 10)                9910
=================================================================
Total params: 791,020
Trainable params: 789,040
Non-trainable params: 1,980
_________________________________________________________________
None
Model: "model_95"
_________________________________________________________________
Layer (type)                 Output Shape              Param #
=================================================================
inputs_basa (InputLayer)     [(None, 784)]             0
_________________________________________________________________
dense_318 (Dense)            (None, 600)               471000
_________________________________________________________________
activation_223 (Activation)  (None, 600)               0
_________________________________________________________________
dropout_117 (Dropout)        (None, 600)               0
_________________________________________________________________
batch_normalization_127 (Bat (None, 600)               2400
_________________________________________________________________
dense_319 (Dense)            (None, 10)                6010
=================================================================
Total params: 479,410
Trainable params: 478,210
Non-trainable params: 1,200
_________________________________________________________________
None
Model: "model_96"
_________________________________________________________________
Layer (type)                 Output Shape              Param #
=================================================================
inputs_basa (InputLayer)     [(None, 784)]             0
_________________________________________________________________
dense_320 (Dense)            (None, 1110)              871350
_________________________________________________________________
activation_224 (Activation)  (None, 1110)              0
_________________________________________________________________
dropout_118 (Dropout)        (None, 1110)              0
_________________________________________________________________
batch_normalization_128 (Bat (None, 1110)              4440
_________________________________________________________________
dense_321 (Dense)            (None, 10)                11110
=================================================================
Total params: 886,900
Trainable params: 884,680
Non-trainable params: 2,220
_________________________________________________________________
None
Model: "model_97"
_________________________________________________________________
Layer (type)                 Output Shape              Param #
=================================================================
inputs_basa (InputLayer)     [(None, 784)]             0
_________________________________________________________________
dense_322 (Dense)            (None, 1570)              1232450
_________________________________________________________________
activation_225 (Activation)  (None, 1570)              0
_________________________________________________________________
dropout_119 (Dropout)        (None, 1570)              0
_________________________________________________________________
batch_normalization_129 (Bat (None, 1570)              6280
_________________________________________________________________
dense_323 (Dense)            (None, 10)                15710
=================================================================
Total params: 1,254,440
Trainable params: 1,251,300
Non-trainable params: 3,140
_________________________________________________________________
None
Model: "model_98"
_________________________________________________________________
Layer (type)                 Output Shape              Param #
=================================================================
inputs_basa (InputLayer)     [(None, 784)]             0
_________________________________________________________________
dense_324 (Dense)            (None, 330)               259050
_________________________________________________________________
activation_226 (Activation)  (None, 330)               0
_________________________________________________________________
dense_325 (Dense)            (None, 10)                3310
=================================================================
Total params: 262,360
Trainable params: 262,360
Non-trainable params: 0
_________________________________________________________________
None
Model: "model_99"
_________________________________________________________________
Layer (type)                 Output Shape              Param #
=================================================================
inputs_basa (InputLayer)     [(None, 784)]             0
_________________________________________________________________
dense_326 (Dense)            (None, 1560)              1224600
_________________________________________________________________
activation_227 (Activation)  (None, 1560)              0
_________________________________________________________________
dropout_120 (Dropout)        (None, 1560)              0
_________________________________________________________________
batch_normalization_130 (Bat (None, 1560)              6240
_________________________________________________________________
dense_327 (Dense)            (None, 10)                15610
=================================================================
Total params: 1,246,450
Trainable params: 1,243,330
Non-trainable params: 3,120
_________________________________________________________________
None
Model: "model_100"
_________________________________________________________________
Layer (type)                 Output Shape              Param #
=================================================================
inputs_basa (InputLayer)     [(None, 784)]             0
_________________________________________________________________
dense_328 (Dense)            (None, 1480)              1161800
_________________________________________________________________
activation_228 (Activation)  (None, 1480)              0
_________________________________________________________________
dense_329 (Dense)            (None, 10)                14810
=================================================================
Total params: 1,176,610
Trainable params: 1,176,610
Non-trainable params: 0
_________________________________________________________________
None
Train on 48000 samples, validate on 12000 samples
Epoch 1/10
Train on 48000 samples, validate on 12000 samples
Epoch 1/10
Train on 48000 samples, validate on 12000 samples
Epoch 1/10
Train on 48000 samples, validate on 12000 samples
…
