…
2020-03-27 10:01:58.557493: I tensorflow/core/platform/cpu_feature_guard.cc:142] Your CPU supports instructions that this TensorFlow binary was not compiled to use: AVX2
2020-03-27 10:01:58.560114: I tensorflow/core/common_runtime/gpu/gpu_device.cc:1096] Device interconnect StreamExecutor with strength 1 edge matrix:
2020-03-27 10:01:58.562756: I tensorflow/core/common_runtime/gpu/gpu_device.cc:1102]
Model: "model"
_________________________________________________________________
Layer (type)                 Output Shape              Param #
=================================================================
inputs_basa (InputLayer)     [(None, 784)]             0
_________________________________________________________________
dense (Dense)                (None, 1610)              1263850
_________________________________________________________________
activation (Activation)      (None, 1610)              0
_________________________________________________________________
dropout (Dropout)            (None, 1610)              0
_________________________________________________________________
batch_normalization (BatchNo (None, 1610)              6440
_________________________________________________________________
dense_1 (Dense)              (None, 610)               982710
_________________________________________________________________
activation_1 (Activation)    (None, 610)               0
_________________________________________________________________
batch_normalization_1 (Batch (None, 610)               2440
_________________________________________________________________
dense_2 (Dense)              (None, 1220)              745420
_________________________________________________________________
activation_2 (Activation)    (None, 1220)              0
_________________________________________________________________
dropout_1 (Dropout)          (None, 1220)              0
_________________________________________________________________
batch_normalization_2 (Batch (None, 1220)              4880
_________________________________________________________________
dense_3 (Dense)              (None, 10)                12210
=================================================================
Total params: 3,017,950
Trainable params: 3,011,070
Non-trainable params: 6,880
_________________________________________________________________
None
Model: "model_1"
_________________________________________________________________
Layer (type)                 Output Shape              Param #
=================================================================
inputs_basa (InputLayer)     [(None, 784)]             0
_________________________________________________________________
dense_4 (Dense)              (None, 290)               227650
_________________________________________________________________
activation_3 (Activation)    (None, 290)               0
_________________________________________________________________
dropout_2 (Dropout)          (None, 290)               0
_________________________________________________________________
batch_normalization_3 (Batch (None, 290)               1160
_________________________________________________________________
dense_5 (Dense)              (None, 10)                2910
=================================================================
Total params: 231,720
Trainable params: 231,140
Non-trainable params: 580
_________________________________________________________________
None
Model: "model_2"
_________________________________________________________________
Layer (type)                 Output Shape              Param #
=================================================================
inputs_basa (InputLayer)     [(None, 784)]             0
_________________________________________________________________
dense_6 (Dense)              (None, 620)               486700
_________________________________________________________________
activation_4 (Activation)    (None, 620)               0
_________________________________________________________________
batch_normalization_4 (Batch (None, 620)               2480
_________________________________________________________________
dense_7 (Dense)              (None, 430)               267030
_________________________________________________________________
activation_5 (Activation)    (None, 430)               0
_________________________________________________________________
dropout_3 (Dropout)          (None, 430)               0
_________________________________________________________________
batch_normalization_5 (Batch (None, 430)               1720
_________________________________________________________________
dense_8 (Dense)              (None, 10)                4310
=================================================================
Total params: 762,240
Trainable params: 760,140
Non-trainable params: 2,100
_________________________________________________________________
None
Model: "model_3"
_________________________________________________________________
Layer (type)                 Output Shape              Param #
=================================================================
inputs_basa (InputLayer)     [(None, 784)]             0
_________________________________________________________________
dense_9 (Dense)              (None, 1900)              1491500
_________________________________________________________________
activation_6 (Activation)    (None, 1900)              0
_________________________________________________________________
dense_10 (Dense)             (None, 990)               1881990
_________________________________________________________________
activation_7 (Activation)    (None, 990)               0
_________________________________________________________________
dropout_4 (Dropout)          (None, 990)               0
_________________________________________________________________
batch_normalization_6 (Batch (None, 990)               3960
_________________________________________________________________
dense_11 (Dense)             (None, 490)               485590
_________________________________________________________________
activation_8 (Activation)    (None, 490)               0
_________________________________________________________________
dropout_5 (Dropout)          (None, 490)               0
_________________________________________________________________
batch_normalization_7 (Batch (None, 490)               1960
_________________________________________________________________
dense_12 (Dense)             (None, 1330)              653030
_________________________________________________________________
activation_9 (Activation)    (None, 1330)              0
_________________________________________________________________
dropout_6 (Dropout)          (None, 1330)              0
_________________________________________________________________
dense_13 (Dense)             (None, 10)                13310
=================================================================
Total params: 4,531,340
Trainable params: 4,528,380
Non-trainable params: 2,960
_________________________________________________________________
None
Model: "model_4"
_________________________________________________________________
Layer (type)                 Output Shape              Param #
=================================================================
inputs_basa (InputLayer)     [(None, 784)]             0
_________________________________________________________________
dense_14 (Dense)             (None, 970)               761450
_________________________________________________________________
activation_10 (Activation)   (None, 970)               0
_________________________________________________________________
dense_15 (Dense)             (None, 1160)              1126360
_________________________________________________________________
activation_11 (Activation)   (None, 1160)              0
_________________________________________________________________
dropout_7 (Dropout)          (None, 1160)              0
_________________________________________________________________
batch_normalization_8 (Batch (None, 1160)              4640
_________________________________________________________________
dense_16 (Dense)             (None, 10)                11610
=================================================================
Total params: 1,904,060
Trainable params: 1,901,740
Non-trainable params: 2,320
_________________________________________________________________
None
Model: "model_5"
_________________________________________________________________
Layer (type)                 Output Shape              Param #
=================================================================
inputs_basa (InputLayer)     [(None, 784)]             0
_________________________________________________________________
dense_17 (Dense)             (None, 50)                39250
_________________________________________________________________
activation_12 (Activation)   (None, 50)                0
_________________________________________________________________
dropout_8 (Dropout)          (None, 50)                0
_________________________________________________________________
batch_normalization_9 (Batch (None, 50)                200
_________________________________________________________________
dense_18 (Dense)             (None, 1160)              59160
_________________________________________________________________
activation_13 (Activation)   (None, 1160)              0
_________________________________________________________________
dropout_9 (Dropout)          (None, 1160)              0
_________________________________________________________________
batch_normalization_10 (Batc (None, 1160)              4640
_________________________________________________________________
dense_19 (Dense)             (None, 10)                11610
=================================================================
Total params: 114,860
Trainable params: 112,440
Non-trainable params: 2,420
_________________________________________________________________
None
Model: "model_6"
_________________________________________________________________
Layer (type)                 Output Shape              Param #
=================================================================
inputs_basa (InputLayer)     [(None, 784)]             0
_________________________________________________________________
dense_20 (Dense)             (None, 940)               737900
_________________________________________________________________
activation_14 (Activation)   (None, 940)               0
_________________________________________________________________
dropout_10 (Dropout)         (None, 940)               0
_________________________________________________________________
dense_21 (Dense)             (None, 740)               696340
_________________________________________________________________
activation_15 (Activation)   (None, 740)               0
_________________________________________________________________
dropout_11 (Dropout)         (None, 740)               0
_________________________________________________________________
batch_normalization_11 (Batc (None, 740)               2960
_________________________________________________________________
dense_22 (Dense)             (None, 1910)              1415310
_________________________________________________________________
activation_16 (Activation)   (None, 1910)              0
_________________________________________________________________
dropout_12 (Dropout)         (None, 1910)              0
_________________________________________________________________
dense_23 (Dense)             (None, 10)                19110
_________________________________________________________________
activation_17 (Activation)   (None, 10)                0
_________________________________________________________________
dense_24 (Dense)             (None, 10)                110
=================================================================
Total params: 2,871,730
Trainable params: 2,870,250
Non-trainable params: 1,480
_________________________________________________________________
None
Model: "model_7"
_________________________________________________________________
Layer (type)                 Output Shape              Param #
=================================================================
inputs_basa (InputLayer)     [(None, 784)]             0
_________________________________________________________________
dense_25 (Dense)             (None, 440)               345400
_________________________________________________________________
activation_18 (Activation)   (None, 440)               0
_________________________________________________________________
dropout_13 (Dropout)         (None, 440)               0
_________________________________________________________________
dense_26 (Dense)             (None, 10)                4410
=================================================================
Total params: 349,810
Trainable params: 349,810
Non-trainable params: 0
_________________________________________________________________
None
Model: "model_8"
_________________________________________________________________
Layer (type)                 Output Shape              Param #
=================================================================
inputs_basa (InputLayer)     [(None, 784)]             0
_________________________________________________________________
dense_27 (Dense)             (None, 200)               157000
_________________________________________________________________
activation_19 (Activation)   (None, 200)               0
_________________________________________________________________
dropout_14 (Dropout)         (None, 200)               0
_________________________________________________________________
dense_28 (Dense)             (None, 1990)              399990
_________________________________________________________________
activation_20 (Activation)   (None, 1990)              0
_________________________________________________________________
dropout_15 (Dropout)         (None, 1990)              0
_________________________________________________________________
batch_normalization_12 (Batc (None, 1990)              7960
_________________________________________________________________
dense_29 (Dense)             (None, 1090)              2170190
_________________________________________________________________
activation_21 (Activation)   (None, 1090)              0
_________________________________________________________________
dropout_16 (Dropout)         (None, 1090)              0
_________________________________________________________________
batch_normalization_13 (Batc (None, 1090)              4360
_________________________________________________________________
dense_30 (Dense)             (None, 10)                10910
=================================================================
Total params: 2,750,410
Trainable params: 2,744,250
Non-trainable params: 6,160
_________________________________________________________________
None
Model: "model_9"
_________________________________________________________________
Layer (type)                 Output Shape              Param #
=================================================================
inputs_basa (InputLayer)     [(None, 784)]             0
_________________________________________________________________
dense_31 (Dense)             (None, 220)               172700
_________________________________________________________________
activation_22 (Activation)   (None, 220)               0
_________________________________________________________________
batch_normalization_14 (Batc (None, 220)               880
_________________________________________________________________
dense_32 (Dense)             (None, 160)               35360
_________________________________________________________________
activation_23 (Activation)   (None, 160)               0
_________________________________________________________________
dropout_17 (Dropout)         (None, 160)               0
_________________________________________________________________
dense_33 (Dense)             (None, 470)               75670
_________________________________________________________________
activation_24 (Activation)   (None, 470)               0
_________________________________________________________________
dropout_18 (Dropout)         (None, 470)               0
_________________________________________________________________
batch_normalization_15 (Batc (None, 470)               1880
_________________________________________________________________
dense_34 (Dense)             (None, 1120)              527520
_________________________________________________________________
activation_25 (Activation)   (None, 1120)              0
_________________________________________________________________
dense_35 (Dense)             (None, 10)                11210
=================================================================
Total params: 825,220
Trainable params: 823,840
Non-trainable params: 1,380
_________________________________________________________________
None
Model: "model_10"
_________________________________________________________________
Layer (type)                 Output Shape              Param #
=================================================================
inputs_basa (InputLayer)     [(None, 784)]             0
_________________________________________________________________
dense_36 (Dense)             (None, 840)               659400
_________________________________________________________________
activation_26 (Activation)   (None, 840)               0
_________________________________________________________________
dense_37 (Dense)             (None, 380)               319580
_________________________________________________________________
activation_27 (Activation)   (None, 380)               0
_________________________________________________________________
batch_normalization_16 (Batc (None, 380)               1520
_________________________________________________________________
dense_38 (Dense)             (None, 1520)              579120
_________________________________________________________________
activation_28 (Activation)   (None, 1520)              0
_________________________________________________________________
batch_normalization_17 (Batc (None, 1520)              6080
_________________________________________________________________
dense_39 (Dense)             (None, 10)                15210
=================================================================
Total params: 1,580,910
Trainable params: 1,577,110
Non-trainable params: 3,800
_________________________________________________________________
None
Model: "model_11"
_________________________________________________________________
Layer (type)                 Output Shape              Param #
=================================================================
inputs_basa (InputLayer)     [(None, 784)]             0
_________________________________________________________________
dense_40 (Dense)             (None, 1480)              1161800
_________________________________________________________________
activation_29 (Activation)   (None, 1480)              0
_________________________________________________________________
dense_41 (Dense)             (None, 580)               858980
_________________________________________________________________
activation_30 (Activation)   (None, 580)               0
_________________________________________________________________
dropout_19 (Dropout)         (None, 580)               0
_________________________________________________________________
dense_42 (Dense)             (None, 320)               185920
_________________________________________________________________
activation_31 (Activation)   (None, 320)               0
_________________________________________________________________
dense_43 (Dense)             (None, 420)               134820
_________________________________________________________________
activation_32 (Activation)   (None, 420)               0
_________________________________________________________________
batch_normalization_18 (Batc (None, 420)               1680
_________________________________________________________________
dense_44 (Dense)             (None, 10)                4210
=================================================================
Total params: 2,347,410
Trainable params: 2,346,570
Non-trainable params: 840
_________________________________________________________________
None
Model: "model_12"
_________________________________________________________________
Layer (type)                 Output Shape              Param #
=================================================================
inputs_basa (InputLayer)     [(None, 784)]             0
_________________________________________________________________
dense_45 (Dense)             (None, 1130)              887050
_________________________________________________________________
activation_33 (Activation)   (None, 1130)              0
_________________________________________________________________
dense_46 (Dense)             (None, 90)                101790
_________________________________________________________________
activation_34 (Activation)   (None, 90)                0
_________________________________________________________________
dropout_20 (Dropout)         (None, 90)                0
_________________________________________________________________
batch_normalization_19 (Batc (None, 90)                360
_________________________________________________________________
dense_47 (Dense)             (None, 820)               74620
_________________________________________________________________
activation_35 (Activation)   (None, 820)               0
_________________________________________________________________
dropout_21 (Dropout)         (None, 820)               0
_________________________________________________________________
dense_48 (Dense)             (None, 1320)              1083720
_________________________________________________________________
activation_36 (Activation)   (None, 1320)              0
_________________________________________________________________
dense_49 (Dense)             (None, 10)                13210
=================================================================
Total params: 2,160,750
Trainable params: 2,160,570
Non-trainable params: 180
_________________________________________________________________
None
Model: "model_13"
_________________________________________________________________
Layer (type)                 Output Shape              Param #
=================================================================
inputs_basa (InputLayer)     [(None, 784)]             0
_________________________________________________________________
dense_50 (Dense)             (None, 1800)              1413000
_________________________________________________________________
activation_37 (Activation)   (None, 1800)              0
_________________________________________________________________
batch_normalization_20 (Batc (None, 1800)              7200
_________________________________________________________________
dense_51 (Dense)             (None, 700)               1260700
_________________________________________________________________
activation_38 (Activation)   (None, 700)               0
_________________________________________________________________
dropout_22 (Dropout)         (None, 700)               0
_________________________________________________________________
dense_52 (Dense)             (None, 520)               364520
_________________________________________________________________
activation_39 (Activation)   (None, 520)               0
_________________________________________________________________
dropout_23 (Dropout)         (None, 520)               0
_________________________________________________________________
batch_normalization_21 (Batc (None, 520)               2080
_________________________________________________________________
dense_53 (Dense)             (None, 10)                5210
=================================================================
Total params: 3,052,710
Trainable params: 3,048,070
Non-trainable params: 4,640
_________________________________________________________________
None
Model: "model_14"
_________________________________________________________________
Layer (type)                 Output Shape              Param #
=================================================================
inputs_basa (InputLayer)     [(None, 784)]             0
_________________________________________________________________
dense_54 (Dense)             (None, 1720)              1350200
_________________________________________________________________
activation_40 (Activation)   (None, 1720)              0
_________________________________________________________________
dropout_24 (Dropout)         (None, 1720)              0
_________________________________________________________________
batch_normalization_22 (Batc (None, 1720)              6880
_________________________________________________________________
dense_55 (Dense)             (None, 510)               877710
_________________________________________________________________
activation_41 (Activation)   (None, 510)               0
_________________________________________________________________
dense_56 (Dense)             (None, 10)                5110
=================================================================
Total params: 2,239,900
Trainable params: 2,236,460
Non-trainable params: 3,440
_________________________________________________________________
None
Model: "model_15"
_________________________________________________________________
Layer (type)                 Output Shape              Param #
=================================================================
inputs_basa (InputLayer)     [(None, 784)]             0
_________________________________________________________________
dense_57 (Dense)             (None, 60)                47100
_________________________________________________________________
activation_42 (Activation)   (None, 60)                0
_________________________________________________________________
dropout_25 (Dropout)         (None, 60)                0
_________________________________________________________________
dense_58 (Dense)             (None, 390)               23790
_________________________________________________________________
activation_43 (Activation)   (None, 390)               0
_________________________________________________________________
batch_normalization_23 (Batc (None, 390)               1560
_________________________________________________________________
dense_59 (Dense)             (None, 880)               344080
_________________________________________________________________
activation_44 (Activation)   (None, 880)               0
_________________________________________________________________
dense_60 (Dense)             (None, 10)                8810
=================================================================
Total params: 425,340
Trainable params: 424,560
Non-trainable params: 780
_________________________________________________________________
None
Model: "model_16"
_________________________________________________________________
Layer (type)                 Output Shape              Param #
=================================================================
inputs_basa (InputLayer)     [(None, 784)]             0
_________________________________________________________________
dense_61 (Dense)             (None, 910)               714350
_________________________________________________________________
activation_45 (Activation)   (None, 910)               0
_________________________________________________________________
dropout_26 (Dropout)         (None, 910)               0
_________________________________________________________________
batch_normalization_24 (Batc (None, 910)               3640
_________________________________________________________________
dense_62 (Dense)             (None, 10)                9110
=================================================================
Total params: 727,100
Trainable params: 725,280
Non-trainable params: 1,820
_________________________________________________________________
None
Model: "model_17"
_________________________________________________________________
Layer (type)                 Output Shape              Param #
=================================================================
inputs_basa (InputLayer)     [(None, 784)]             0
_________________________________________________________________
dense_63 (Dense)             (None, 880)               690800
_________________________________________________________________
activation_46 (Activation)   (None, 880)               0
_________________________________________________________________
batch_normalization_25 (Batc (None, 880)               3520
_________________________________________________________________
dense_64 (Dense)             (None, 50)                44050
_________________________________________________________________
activation_47 (Activation)   (None, 50)                0
_________________________________________________________________
dropout_27 (Dropout)         (None, 50)                0
_________________________________________________________________
batch_normalization_26 (Batc (None, 50)                200
_________________________________________________________________
dense_65 (Dense)             (None, 970)               49470
_________________________________________________________________
activation_48 (Activation)   (None, 970)               0
_________________________________________________________________
dense_66 (Dense)             (None, 890)               864190
_________________________________________________________________
activation_49 (Activation)   (None, 890)               0
_________________________________________________________________
dropout_28 (Dropout)         (None, 890)               0
_________________________________________________________________
batch_normalization_27 (Batc (None, 890)               3560
_________________________________________________________________
dense_67 (Dense)             (None, 10)                8910
=================================================================
Total params: 1,664,700
Trainable params: 1,661,060
Non-trainable params: 3,640
_________________________________________________________________
None
Model: "model_18"
_________________________________________________________________
Layer (type)                 Output Shape              Param #
=================================================================
inputs_basa (InputLayer)     [(None, 784)]             0
_________________________________________________________________
dense_68 (Dense)             (None, 460)               361100
_________________________________________________________________
activation_50 (Activation)   (None, 460)               0
_________________________________________________________________
dropout_29 (Dropout)         (None, 460)               0
_________________________________________________________________
dense_69 (Dense)             (None, 1890)              871290
_________________________________________________________________
activation_51 (Activation)   (None, 1890)              0
_________________________________________________________________
dropout_30 (Dropout)         (None, 1890)              0
_________________________________________________________________
dense_70 (Dense)             (None, 1720)              3252520
_________________________________________________________________
activation_52 (Activation)   (None, 1720)              0
_________________________________________________________________
dense_71 (Dense)             (None, 1580)              2719180
_________________________________________________________________
activation_53 (Activation)   (None, 1580)              0
_________________________________________________________________
dense_72 (Dense)             (None, 10)                15810
=================================================================
Total params: 7,219,900
Trainable params: 7,219,900
Non-trainable params: 0
_________________________________________________________________
None
Model: "model_19"
_________________________________________________________________
Layer (type)                 Output Shape              Param #
=================================================================
inputs_basa (InputLayer)     [(None, 784)]             0
_________________________________________________________________
dense_73 (Dense)             (None, 1910)              1499350
_________________________________________________________________
activation_54 (Activation)   (None, 1910)              0
_________________________________________________________________
batch_normalization_28 (Batc (None, 1910)              7640
_________________________________________________________________
dense_74 (Dense)             (None, 1120)              2140320
_________________________________________________________________
activation_55 (Activation)   (None, 1120)              0
_________________________________________________________________
dropout_31 (Dropout)         (None, 1120)              0
_________________________________________________________________
batch_normalization_29 (Batc (None, 1120)              4480
_________________________________________________________________
dense_75 (Dense)             (None, 890)               997690
_________________________________________________________________
activation_56 (Activation)   (None, 890)               0
_________________________________________________________________
dropout_32 (Dropout)         (None, 890)               0
_________________________________________________________________
dense_76 (Dense)             (None, 170)               151470
_________________________________________________________________
activation_57 (Activation)   (None, 170)               0
_________________________________________________________________
batch_normalization_30 (Batc (None, 170)               680
_________________________________________________________________
dense_77 (Dense)             (None, 10)                1710
=================================================================
Total params: 4,803,340
Trainable params: 4,796,940
Non-trainable params: 6,400
_________________________________________________________________
None
Model: "model_20"
_________________________________________________________________
Layer (type)                 Output Shape              Param #
=================================================================
inputs_basa (InputLayer)     [(None, 784)]             0
_________________________________________________________________
dense_78 (Dense)             (None, 1180)              926300
_________________________________________________________________
activation_58 (Activation)   (None, 1180)              0
_________________________________________________________________
dense_79 (Dense)             (None, 10)                11810
=================================================================
Total params: 938,110
Trainable params: 938,110
Non-trainable params: 0
_________________________________________________________________
None
Train on 48000 samples, validate on 12000 samples
Epoch 1/10
Train on 48000 samples, validate on 12000 samples
Epoch 1/10
Train on 48000 samples, validate on 12000 samples
Epoch 1/10
Train on 48000 samples, validate on 12000 samples
…
 id = 16  val_accuracy = 0.9808333516120911
 id = 18  val_accuracy = 0.9774166941642761
 id = 2  val_accuracy = 0.9769166707992554
!!!!!!!!!!!!!!!!!!!!!!!!!!!!!!!!!!!!!!!!!!!!!!!!!!
!!!!!!!!!!!!!!!!  1   !!!!!!!!!!!!!!!!!!!!!!!!!!!!!!!!!!
Model: "model_21"
_________________________________________________________________
Layer (type)                 Output Shape              Param #
=================================================================
inputs_basa (InputLayer)     [(None, 784)]             0
_________________________________________________________________
dense_80 (Dense)             (None, 910)               714350
_________________________________________________________________
activation_59 (Activation)   (None, 910)               0
_________________________________________________________________
dropout_33 (Dropout)         (None, 910)               0
_________________________________________________________________
batch_normalization_31 (Batc (None, 910)               3640
_________________________________________________________________
dense_81 (Dense)             (None, 10)                9110
=================================================================
Total params: 727,100
Trainable params: 725,280
Non-trainable params: 1,820
_________________________________________________________________
None
Model: "model_22"
_________________________________________________________________
Layer (type)                 Output Shape              Param #
=================================================================
inputs_basa (InputLayer)     [(None, 784)]             0
_________________________________________________________________
dense_82 (Dense)             (None, 460)               361100
_________________________________________________________________
activation_60 (Activation)   (None, 460)               0
_________________________________________________________________
dropout_34 (Dropout)         (None, 460)               0
_________________________________________________________________
dense_83 (Dense)             (None, 1890)              871290
_________________________________________________________________
activation_61 (Activation)   (None, 1890)              0
_________________________________________________________________
dropout_35 (Dropout)         (None, 1890)              0
_________________________________________________________________
dense_84 (Dense)             (None, 1720)              3252520
_________________________________________________________________
activation_62 (Activation)   (None, 1720)              0
_________________________________________________________________
dense_85 (Dense)             (None, 1580)              2719180
_________________________________________________________________
activation_63 (Activation)   (None, 1580)              0
_________________________________________________________________
dense_86 (Dense)             (None, 10)                15810
=================================================================
Total params: 7,219,900
Trainable params: 7,219,900
Non-trainable params: 0
_________________________________________________________________
None
Model: "model_23"
_________________________________________________________________
Layer (type)                 Output Shape              Param #
=================================================================
inputs_basa (InputLayer)     [(None, 784)]             0
_________________________________________________________________
dense_87 (Dense)             (None, 620)               486700
_________________________________________________________________
activation_64 (Activation)   (None, 620)               0
_________________________________________________________________
batch_normalization_32 (Batc (None, 620)               2480
_________________________________________________________________
dense_88 (Dense)             (None, 430)               267030
_________________________________________________________________
activation_65 (Activation)   (None, 430)               0
_________________________________________________________________
dropout_36 (Dropout)         (None, 430)               0
_________________________________________________________________
batch_normalization_33 (Batc (None, 430)               1720
_________________________________________________________________
dense_89 (Dense)             (None, 10)                4310
=================================================================
Total params: 762,240
Trainable params: 760,140
Non-trainable params: 2,100
_________________________________________________________________
None
Model: "model_24"
_________________________________________________________________
Layer (type)                 Output Shape              Param #
=================================================================
inputs_basa (InputLayer)     [(None, 784)]             0
_________________________________________________________________
dense_90 (Dense)             (None, 1108)              869780
_________________________________________________________________
activation_66 (Activation)   (None, 1108)              0
_________________________________________________________________
dropout_37 (Dropout)         (None, 1108)              0
_________________________________________________________________
batch_normalization_34 (Batc (None, 1108)              4432
_________________________________________________________________
dense_91 (Dense)             (None, 10)                11090
=================================================================
Total params: 885,302
Trainable params: 883,086
Non-trainable params: 2,216
_________________________________________________________________
None
Model: "model_25"
_________________________________________________________________
Layer (type)                 Output Shape              Param #
=================================================================
inputs_basa (InputLayer)     [(None, 784)]             0
_________________________________________________________________
dense_92 (Dense)             (None, 675)               529875
_________________________________________________________________
activation_67 (Activation)   (None, 675)               0
_________________________________________________________________
dropout_38 (Dropout)         (None, 675)               0
_________________________________________________________________
dense_93 (Dense)             (None, 2774)              1875224
_________________________________________________________________
activation_68 (Activation)   (None, 2774)              0
_________________________________________________________________
dropout_39 (Dropout)         (None, 2774)              0
_________________________________________________________________
dense_94 (Dense)             (None, 915)               2539125
_________________________________________________________________
activation_69 (Activation)   (None, 915)               0
_________________________________________________________________
dense_95 (Dense)             (None, 2319)              2124204
_________________________________________________________________
activation_70 (Activation)   (None, 2319)              0
_________________________________________________________________
dense_96 (Dense)             (None, 10)                23200
=================================================================
Total params: 7,091,628
Trainable params: 7,091,628
Non-trainable params: 0
_________________________________________________________________
None
Model: "model_26"
_________________________________________________________________
Layer (type)                 Output Shape              Param #
=================================================================
inputs_basa (InputLayer)     [(None, 784)]             0
_________________________________________________________________
dense_97 (Dense)             (None, 1890)              1483650
_________________________________________________________________
activation_71 (Activation)   (None, 1890)              0
_________________________________________________________________
batch_normalization_35 (Batc (None, 1890)              7560
_________________________________________________________________
dense_98 (Dense)             (None, 840)               1588440
_________________________________________________________________
activation_72 (Activation)   (None, 840)               0
_________________________________________________________________
dropout_40 (Dropout)         (None, 840)               0
_________________________________________________________________
dense_99 (Dense)             (None, 1890)              1589490
_________________________________________________________________
activation_73 (Activation)   (None, 1890)              0
_________________________________________________________________
dense_100 (Dense)            (None, 780)               1474980
_________________________________________________________________
activation_74 (Activation)   (None, 780)               0
_________________________________________________________________
batch_normalization_36 (Batc (None, 780)               3120
_________________________________________________________________
dense_101 (Dense)            (None, 10)                7810
=================================================================
Total params: 6,155,050
Trainable params: 6,149,710
Non-trainable params: 5,340
_________________________________________________________________
None
Model: "model_27"
_________________________________________________________________
Layer (type)                 Output Shape              Param #
=================================================================
inputs_basa (InputLayer)     [(None, 784)]             0
_________________________________________________________________
dense_102 (Dense)            (None, 1960)              1538600
_________________________________________________________________
activation_75 (Activation)   (None, 1960)              0
_________________________________________________________________
batch_normalization_37 (Batc (None, 1960)              7840
_________________________________________________________________
dense_103 (Dense)            (None, 1440)              2823840
_________________________________________________________________
activation_76 (Activation)   (None, 1440)              0
_________________________________________________________________
dropout_41 (Dropout)         (None, 1440)              0
_________________________________________________________________
dense_104 (Dense)            (None, 590)               850190
_________________________________________________________________
activation_77 (Activation)   (None, 590)               0
_________________________________________________________________
dropout_42 (Dropout)         (None, 590)               0
_________________________________________________________________
dense_105 (Dense)            (None, 10)                5910
=================================================================
Total params: 5,226,380
Trainable params: 5,222,460
Non-trainable params: 3,920
_________________________________________________________________
None
Model: "model_28"
_________________________________________________________________
Layer (type)                 Output Shape              Param #
=================================================================
inputs_basa (InputLayer)     [(None, 784)]             0
_________________________________________________________________
dense_106 (Dense)            (None, 90)                70650
_________________________________________________________________
activation_78 (Activation)   (None, 90)                0
_________________________________________________________________
batch_normalization_38 (Batc (None, 90)                360
_________________________________________________________________
dense_107 (Dense)            (None, 1730)              157430
_________________________________________________________________
activation_79 (Activation)   (None, 1730)              0
_________________________________________________________________
dense_108 (Dense)            (None, 1150)              1990650
_________________________________________________________________
activation_80 (Activation)   (None, 1150)              0
_________________________________________________________________
dropout_43 (Dropout)         (None, 1150)              0
_________________________________________________________________
dense_109 (Dense)            (None, 900)               1035900
_________________________________________________________________
activation_81 (Activation)   (None, 900)               0
_________________________________________________________________
dropout_44 (Dropout)         (None, 900)               0
_________________________________________________________________
batch_normalization_39 (Batc (None, 900)               3600
_________________________________________________________________
dense_110 (Dense)            (None, 10)                9010
=================================================================
Total params: 3,267,600
Trainable params: 3,265,620
Non-trainable params: 1,980
_________________________________________________________________
None
Model: "model_29"
_________________________________________________________________
Layer (type)                 Output Shape              Param #
=================================================================
inputs_basa (InputLayer)     [(None, 784)]             0
_________________________________________________________________
dense_111 (Dense)            (None, 1470)              1153950
_________________________________________________________________
activation_82 (Activation)   (None, 1470)              0
_________________________________________________________________
batch_normalization_40 (Batc (None, 1470)              5880
_________________________________________________________________
dense_112 (Dense)            (None, 1190)              1750490
_________________________________________________________________
activation_83 (Activation)   (None, 1190)              0
_________________________________________________________________
dropout_45 (Dropout)         (None, 1190)              0
_________________________________________________________________
batch_normalization_41 (Batc (None, 1190)              4760
_________________________________________________________________
dense_113 (Dense)            (None, 80)                95280
_________________________________________________________________
activation_84 (Activation)   (None, 80)                0
_________________________________________________________________
dropout_46 (Dropout)         (None, 80)                0
_________________________________________________________________
batch_normalization_42 (Batc (None, 80)                320
_________________________________________________________________
dense_114 (Dense)            (None, 160)               12960
_________________________________________________________________
activation_85 (Activation)   (None, 160)               0
_________________________________________________________________
dropout_47 (Dropout)         (None, 160)               0
_________________________________________________________________
batch_normalization_43 (Batc (None, 160)               640
_________________________________________________________________
dense_115 (Dense)            (None, 10)                1610
=================================================================
Total params: 3,025,890
Trainable params: 3,020,090
Non-trainable params: 5,800
_________________________________________________________________
None
Model: "model_30"
_________________________________________________________________
Layer (type)                 Output Shape              Param #
=================================================================
inputs_basa (InputLayer)     [(None, 784)]             0
_________________________________________________________________
dense_116 (Dense)            (None, 1490)              1169650
_________________________________________________________________
activation_86 (Activation)   (None, 1490)              0
_________________________________________________________________
batch_normalization_44 (Batc (None, 1490)              5960
_________________________________________________________________
dense_117 (Dense)            (None, 10)                14910
=================================================================
Total params: 1,190,520
Trainable params: 1,187,540
Non-trainable params: 2,980
_________________________________________________________________
None
Model: "model_31"
_________________________________________________________________
Layer (type)                 Output Shape              Param #
=================================================================
inputs_basa (InputLayer)     [(None, 784)]             0
_________________________________________________________________
dense_118 (Dense)            (None, 1540)              1208900
_________________________________________________________________
activation_87 (Activation)   (None, 1540)              0
_________________________________________________________________
dropout_48 (Dropout)         (None, 1540)              0
_________________________________________________________________
dense_119 (Dense)            (None, 540)               832140
_________________________________________________________________
activation_88 (Activation)   (None, 540)               0
_________________________________________________________________
batch_normalization_45 (Batc (None, 540)               2160
_________________________________________________________________
dense_120 (Dense)            (None, 560)               302960
_________________________________________________________________
activation_89 (Activation)   (None, 560)               0
_________________________________________________________________
dense_121 (Dense)            (None, 410)               230010
_________________________________________________________________
activation_90 (Activation)   (None, 410)               0
_________________________________________________________________
dense_122 (Dense)            (None, 10)                4110
=================================================================
Total params: 2,580,280
Trainable params: 2,579,200
Non-trainable params: 1,080
_________________________________________________________________
None
Model: "model_32"
_________________________________________________________________
Layer (type)                 Output Shape              Param #
=================================================================
inputs_basa (InputLayer)     [(None, 784)]             0
_________________________________________________________________
dense_123 (Dense)            (None, 230)               180550
_________________________________________________________________
activation_91 (Activation)   (None, 230)               0
_________________________________________________________________
batch_normalization_46 (Batc (None, 230)               920
_________________________________________________________________
dense_124 (Dense)            (None, 470)               108570
_________________________________________________________________
activation_92 (Activation)   (None, 470)               0
_________________________________________________________________
batch_normalization_47 (Batc (None, 470)               1880
_________________________________________________________________
dense_125 (Dense)            (None, 1830)              861930
_________________________________________________________________
activation_93 (Activation)   (None, 1830)              0
_________________________________________________________________
dropout_49 (Dropout)         (None, 1830)              0
_________________________________________________________________
batch_normalization_48 (Batc (None, 1830)              7320
_________________________________________________________________
dense_126 (Dense)            (None, 240)               439440
_________________________________________________________________
activation_94 (Activation)   (None, 240)               0
_________________________________________________________________
dropout_50 (Dropout)         (None, 240)               0
_________________________________________________________________
batch_normalization_49 (Batc (None, 240)               960
_________________________________________________________________
dense_127 (Dense)            (None, 10)                2410
=================================================================
Total params: 1,603,980
Trainable params: 1,598,440
Non-trainable params: 5,540
_________________________________________________________________
None
Model: "model_33"
_________________________________________________________________
Layer (type)                 Output Shape              Param #
=================================================================
inputs_basa (InputLayer)     [(None, 784)]             0
_________________________________________________________________
dense_128 (Dense)            (None, 760)               596600
_________________________________________________________________
activation_95 (Activation)   (None, 760)               0
_________________________________________________________________
batch_normalization_50 (Batc (None, 760)               3040
_________________________________________________________________
dense_129 (Dense)            (None, 550)               418550
_________________________________________________________________
activation_96 (Activation)   (None, 550)               0
_________________________________________________________________
dropout_51 (Dropout)         (None, 550)               0
_________________________________________________________________
dense_130 (Dense)            (None, 10)                5510
=================================================================
Total params: 1,023,700
Trainable params: 1,022,180
Non-trainable params: 1,520
_________________________________________________________________
None
Model: "model_34"
_________________________________________________________________
Layer (type)                 Output Shape              Param #
=================================================================
inputs_basa (InputLayer)     [(None, 784)]             0
_________________________________________________________________
dense_131 (Dense)            (None, 780)               612300
_________________________________________________________________
activation_97 (Activation)   (None, 780)               0
_________________________________________________________________
dense_132 (Dense)            (None, 1140)              890340
_________________________________________________________________
activation_98 (Activation)   (None, 1140)              0
_________________________________________________________________
dropout_52 (Dropout)         (None, 1140)              0
_________________________________________________________________
dense_133 (Dense)            (None, 290)               330890
_________________________________________________________________
activation_99 (Activation)   (None, 290)               0
_________________________________________________________________
dropout_53 (Dropout)         (None, 290)               0
_________________________________________________________________
batch_normalization_51 (Batc (None, 290)               1160
_________________________________________________________________
dense_134 (Dense)            (None, 10)                2910
=================================================================
Total params: 1,837,600
Trainable params: 1,837,020
Non-trainable params: 580
_________________________________________________________________
None
Model: "model_35"
_________________________________________________________________
Layer (type)                 Output Shape              Param #
=================================================================
inputs_basa (InputLayer)     [(None, 784)]             0
_________________________________________________________________
dense_135 (Dense)            (None, 770)               604450
_________________________________________________________________
activation_100 (Activation)  (None, 770)               0
_________________________________________________________________
dropout_54 (Dropout)         (None, 770)               0
_________________________________________________________________
batch_normalization_52 (Batc (None, 770)               3080
_________________________________________________________________
dense_136 (Dense)            (None, 10)                7710
_________________________________________________________________
activation_101 (Activation)  (None, 10)                0
_________________________________________________________________
batch_normalization_53 (Batc (None, 10)                40
_________________________________________________________________
dense_137 (Dense)            (None, 280)               3080
_________________________________________________________________
activation_102 (Activation)  (None, 280)               0
_________________________________________________________________
dense_138 (Dense)            (None, 1050)              295050
_________________________________________________________________
activation_103 (Activation)  (None, 1050)              0
_________________________________________________________________
dense_139 (Dense)            (None, 10)                10510
=================================================================
Total params: 923,920
Trainable params: 922,360
Non-trainable params: 1,560
_________________________________________________________________
None
Model: "model_36"
_________________________________________________________________
Layer (type)                 Output Shape              Param #
=================================================================
inputs_basa (InputLayer)     [(None, 784)]             0
_________________________________________________________________
dense_140 (Dense)            (None, 1890)              1483650
_________________________________________________________________
activation_104 (Activation)  (None, 1890)              0
_________________________________________________________________
dropout_55 (Dropout)         (None, 1890)              0
_________________________________________________________________
dense_141 (Dense)            (None, 330)               624030
_________________________________________________________________
activation_105 (Activation)  (None, 330)               0
_________________________________________________________________
batch_normalization_54 (Batc (None, 330)               1320
_________________________________________________________________
dense_142 (Dense)            (None, 1170)              387270
_________________________________________________________________
activation_106 (Activation)  (None, 1170)              0
_________________________________________________________________
dropout_56 (Dropout)         (None, 1170)              0
_________________________________________________________________
batch_normalization_55 (Batc (None, 1170)              4680
_________________________________________________________________
dense_143 (Dense)            (None, 1950)              2283450
_________________________________________________________________
activation_107 (Activation)  (None, 1950)              0
_________________________________________________________________
dropout_57 (Dropout)         (None, 1950)              0
_________________________________________________________________
dense_144 (Dense)            (None, 10)                19510
=================================================================
Total params: 4,803,910
Trainable params: 4,800,910
Non-trainable params: 3,000
_________________________________________________________________
None
Model: "model_37"
_________________________________________________________________
Layer (type)                 Output Shape              Param #
=================================================================
inputs_basa (InputLayer)     [(None, 784)]             0
_________________________________________________________________
dense_145 (Dense)            (None, 1640)              1287400
_________________________________________________________________
activation_108 (Activation)  (None, 1640)              0
_________________________________________________________________
dense_146 (Dense)            (None, 1470)              2412270
_________________________________________________________________
activation_109 (Activation)  (None, 1470)              0
_________________________________________________________________
dense_147 (Dense)            (None, 1300)              1912300
_________________________________________________________________
activation_110 (Activation)  (None, 1300)              0
_________________________________________________________________
dropout_58 (Dropout)         (None, 1300)              0
_________________________________________________________________
dense_148 (Dense)            (None, 350)               455350
_________________________________________________________________
activation_111 (Activation)  (None, 350)               0
_________________________________________________________________
batch_normalization_56 (Batc (None, 350)               1400
_________________________________________________________________
dense_149 (Dense)            (None, 10)                3510
=================================================================
Total params: 6,072,230
Trainable params: 6,071,530
Non-trainable params: 700
_________________________________________________________________
None
Model: "model_38"
_________________________________________________________________
Layer (type)                 Output Shape              Param #
=================================================================
inputs_basa (InputLayer)     [(None, 784)]             0
_________________________________________________________________
dense_150 (Dense)            (None, 760)               596600
_________________________________________________________________
activation_112 (Activation)  (None, 760)               0
_________________________________________________________________
dropout_59 (Dropout)         (None, 760)               0
_________________________________________________________________
batch_normalization_57 (Batc (None, 760)               3040
_________________________________________________________________
dense_151 (Dense)            (None, 1890)              1438290
_________________________________________________________________
activation_113 (Activation)  (None, 1890)              0
_________________________________________________________________
dense_152 (Dense)            (None, 230)               434930
_________________________________________________________________
activation_114 (Activation)  (None, 230)               0
_________________________________________________________________
dropout_60 (Dropout)         (None, 230)               0
_________________________________________________________________
batch_normalization_58 (Batc (None, 230)               920
_________________________________________________________________
dense_153 (Dense)            (None, 1640)              378840
_________________________________________________________________
activation_115 (Activation)  (None, 1640)              0
_________________________________________________________________
batch_normalization_59 (Batc (None, 1640)              6560
_________________________________________________________________
dense_154 (Dense)            (None, 10)                16410
=================================================================
Total params: 2,875,590
Trainable params: 2,870,330
Non-trainable params: 5,260
_________________________________________________________________
None
Model: "model_39"
_________________________________________________________________
Layer (type)                 Output Shape              Param #
=================================================================
inputs_basa (InputLayer)     [(None, 784)]             0
_________________________________________________________________
dense_155 (Dense)            (None, 1430)              1122550
_________________________________________________________________
activation_116 (Activation)  (None, 1430)              0
_________________________________________________________________
batch_normalization_60 (Batc (None, 1430)              5720
_________________________________________________________________
dense_156 (Dense)            (None, 10)                14310
=================================================================
Total params: 1,142,580
Trainable params: 1,139,720
Non-trainable params: 2,860
_________________________________________________________________
None
Model: "model_40"
_________________________________________________________________
Layer (type)                 Output Shape              Param #
=================================================================
inputs_basa (InputLayer)     [(None, 784)]             0
_________________________________________________________________
dense_157 (Dense)            (None, 440)               345400
_________________________________________________________________
activation_117 (Activation)  (None, 440)               0
_________________________________________________________________
dense_158 (Dense)            (None, 140)               61740
_________________________________________________________________
activation_118 (Activation)  (None, 140)               0
_________________________________________________________________
dropout_61 (Dropout)         (None, 140)               0
_________________________________________________________________
dense_159 (Dense)            (None, 1240)              174840
_________________________________________________________________
activation_119 (Activation)  (None, 1240)              0
_________________________________________________________________
dense_160 (Dense)            (None, 10)                12410
=================================================================
Total params: 594,390
Trainable params: 594,390
Non-trainable params: 0
_________________________________________________________________
None
Train on 48000 samples, validate on 12000 samples
Epoch 1/10
Train on 48000 samples, validate on 12000 samples
Train on 48000 samples, validate on 12000 samples
Epoch 1/10
Train on 48000 samples, validate on 12000 samples
…
 id = 0  val_accuracy = 0.9803333282470703
 id = 3  val_accuracy = 0.9791666865348816
 id = 1  val_accuracy = 0.9781666398048401
!!!!!!!!!!!!!!!!!!!!!!!!!!!!!!!!!!!!!!!!!!!!!!!!!!
!!!!!!!!!!!!!!!!  2   !!!!!!!!!!!!!!!!!!!!!!!!!!!!!!!!!!
Model: "model_41"
_________________________________________________________________
Layer (type)                 Output Shape              Param #
=================================================================
inputs_basa (InputLayer)     [(None, 784)]             0
_________________________________________________________________
dense_161 (Dense)            (None, 910)               714350
_________________________________________________________________
activation_120 (Activation)  (None, 910)               0
_________________________________________________________________
dropout_62 (Dropout)         (None, 910)               0
_________________________________________________________________
batch_normalization_61 (Batc (None, 910)               3640
_________________________________________________________________
dense_162 (Dense)            (None, 10)                9110
=================================================================
Total params: 727,100
Trainable params: 725,280
Non-trainable params: 1,820
_________________________________________________________________
None
Model: "model_42"
_________________________________________________________________
Layer (type)                 Output Shape              Param #
=================================================================
inputs_basa (InputLayer)     [(None, 784)]             0
_________________________________________________________________
dense_163 (Dense)            (None, 1108)              869780
_________________________________________________________________
activation_121 (Activation)  (None, 1108)              0
_________________________________________________________________
dropout_63 (Dropout)         (None, 1108)              0
_________________________________________________________________
batch_normalization_62 (Batc (None, 1108)              4432
_________________________________________________________________
dense_164 (Dense)            (None, 10)                11090
=================================================================
Total params: 885,302
Trainable params: 883,086
Non-trainable params: 2,216
_________________________________________________________________
None
Model: "model_43"
_________________________________________________________________
Layer (type)                 Output Shape              Param #
=================================================================
inputs_basa (InputLayer)     [(None, 784)]             0
_________________________________________________________________
dense_165 (Dense)            (None, 460)               361100
_________________________________________________________________
activation_122 (Activation)  (None, 460)               0
_________________________________________________________________
dropout_64 (Dropout)         (None, 460)               0
_________________________________________________________________
dense_166 (Dense)            (None, 1890)              871290
_________________________________________________________________
activation_123 (Activation)  (None, 1890)              0
_________________________________________________________________
dropout_65 (Dropout)         (None, 1890)              0
_________________________________________________________________
dense_167 (Dense)            (None, 1720)              3252520
_________________________________________________________________
activation_124 (Activation)  (None, 1720)              0
_________________________________________________________________
dense_168 (Dense)            (None, 1580)              2719180
_________________________________________________________________
activation_125 (Activation)  (None, 1580)              0
_________________________________________________________________
dense_169 (Dense)            (None, 10)                15810
=================================================================
Total params: 7,219,900
Trainable params: 7,219,900
Non-trainable params: 0
_________________________________________________________________
None
Model: "model_44"
_________________________________________________________________
Layer (type)                 Output Shape              Param #
=================================================================
inputs_basa (InputLayer)     [(None, 784)]             0
_________________________________________________________________
dense_170 (Dense)            (None, 585)               459225
_________________________________________________________________
activation_126 (Activation)  (None, 585)               0
_________________________________________________________________
dropout_66 (Dropout)         (None, 585)               0
_________________________________________________________________
batch_normalization_63 (Batc (None, 585)               2340
_________________________________________________________________
dense_171 (Dense)            (None, 10)                5860
=================================================================
Total params: 467,425
Trainable params: 466,255
Non-trainable params: 1,170
_________________________________________________________________
None
Model: "model_45"
_________________________________________________________________
Layer (type)                 Output Shape              Param #
=================================================================
inputs_basa (InputLayer)     [(None, 784)]             0
_________________________________________________________________
dense_172 (Dense)            (None, 986)               774010
_________________________________________________________________
activation_127 (Activation)  (None, 986)               0
_________________________________________________________________
dropout_67 (Dropout)         (None, 986)               0
_________________________________________________________________
batch_normalization_64 (Batc (None, 986)               3944
_________________________________________________________________
dense_173 (Dense)            (None, 10)                9870
=================================================================
Total params: 787,824
Trainable params: 785,852
Non-trainable params: 1,972
_________________________________________________________________
None
Model: "model_46"
_________________________________________________________________
Layer (type)                 Output Shape              Param #
=================================================================
inputs_basa (InputLayer)     [(None, 784)]             0
_________________________________________________________________
dense_174 (Dense)            (None, 1770)              1389450
_________________________________________________________________
activation_128 (Activation)  (None, 1770)              0
_________________________________________________________________
dropout_68 (Dropout)         (None, 1770)              0
_________________________________________________________________
dense_175 (Dense)            (None, 1000)              1771000
_________________________________________________________________
activation_129 (Activation)  (None, 1000)              0
_________________________________________________________________
dense_176 (Dense)            (None, 730)               730730
_________________________________________________________________
activation_130 (Activation)  (None, 730)               0
_________________________________________________________________
dropout_69 (Dropout)         (None, 730)               0
_________________________________________________________________
dense_177 (Dense)            (None, 10)                7310
=================================================================
Total params: 3,898,490
Trainable params: 3,898,490
Non-trainable params: 0
_________________________________________________________________
None
Model: "model_47"
_________________________________________________________________
Layer (type)                 Output Shape              Param #
=================================================================
inputs_basa (InputLayer)     [(None, 784)]             0
_________________________________________________________________
dense_178 (Dense)            (None, 1770)              1389450
_________________________________________________________________
activation_131 (Activation)  (None, 1770)              0
_________________________________________________________________
dropout_70 (Dropout)         (None, 1770)              0
_________________________________________________________________
dense_179 (Dense)            (None, 190)               336490
_________________________________________________________________
activation_132 (Activation)  (None, 190)               0
_________________________________________________________________
dropout_71 (Dropout)         (None, 190)               0
_________________________________________________________________
batch_normalization_65 (Batc (None, 190)               760
_________________________________________________________________
dense_180 (Dense)            (None, 1340)              255940
_________________________________________________________________
activation_133 (Activation)  (None, 1340)              0
_________________________________________________________________
dense_181 (Dense)            (None, 10)                13410
=================================================================
Total params: 1,996,050
Trainable params: 1,995,670
Non-trainable params: 380
_________________________________________________________________
None
Model: "model_48"
_________________________________________________________________
Layer (type)                 Output Shape              Param #
=================================================================
inputs_basa (InputLayer)     [(None, 784)]             0
_________________________________________________________________
dense_182 (Dense)            (None, 120)               94200
_________________________________________________________________
activation_134 (Activation)  (None, 120)               0
_________________________________________________________________
dense_183 (Dense)            (None, 1430)              173030
_________________________________________________________________
activation_135 (Activation)  (None, 1430)              0
_________________________________________________________________
dense_184 (Dense)            (None, 10)                14310
=================================================================
Total params: 281,540
Trainable params: 281,540
Non-trainable params: 0
_________________________________________________________________
None
Model: "model_49"
_________________________________________________________________
Layer (type)                 Output Shape              Param #
=================================================================
inputs_basa (InputLayer)     [(None, 784)]             0
_________________________________________________________________
dense_185 (Dense)            (None, 920)               722200
_________________________________________________________________
activation_136 (Activation)  (None, 920)               0
_________________________________________________________________
dropout_72 (Dropout)         (None, 920)               0
_________________________________________________________________
batch_normalization_66 (Batc (None, 920)               3680
_________________________________________________________________
dense_186 (Dense)            (None, 1030)              948630
_________________________________________________________________
activation_137 (Activation)  (None, 1030)              0
_________________________________________________________________
batch_normalization_67 (Batc (None, 1030)              4120
_________________________________________________________________
dense_187 (Dense)            (None, 1960)              2020760
_________________________________________________________________
activation_138 (Activation)  (None, 1960)              0
_________________________________________________________________
dropout_73 (Dropout)         (None, 1960)              0
_________________________________________________________________
dense_188 (Dense)            (None, 10)                19610
=================================================================
Total params: 3,719,000
Trainable params: 3,715,100
Non-trainable params: 3,900
_________________________________________________________________
None
Model: "model_50"
_________________________________________________________________
Layer (type)                 Output Shape              Param #
=================================================================
inputs_basa (InputLayer)     [(None, 784)]             0
_________________________________________________________________
dense_189 (Dense)            (None, 1660)              1303100
_________________________________________________________________
activation_139 (Activation)  (None, 1660)              0
_________________________________________________________________
batch_normalization_68 (Batc (None, 1660)              6640
_________________________________________________________________
dense_190 (Dense)            (None, 260)               431860
_________________________________________________________________
activation_140 (Activation)  (None, 260)               0
_________________________________________________________________
batch_normalization_69 (Batc (None, 260)               1040
_________________________________________________________________
dense_191 (Dense)            (None, 10)                2610
=================================================================
Total params: 1,745,250
Trainable params: 1,741,410
Non-trainable params: 3,840
_________________________________________________________________
None
Model: "model_51"
_________________________________________________________________
Layer (type)                 Output Shape              Param #
=================================================================
inputs_basa (InputLayer)     [(None, 784)]             0
_________________________________________________________________
dense_192 (Dense)            (None, 330)               259050
_________________________________________________________________
activation_141 (Activation)  (None, 330)               0
_________________________________________________________________
dense_193 (Dense)            (None, 10)                3310
=================================================================
Total params: 262,360
Trainable params: 262,360
Non-trainable params: 0
_________________________________________________________________
None
Model: "model_52"
_________________________________________________________________
Layer (type)                 Output Shape              Param #
=================================================================
inputs_basa (InputLayer)     [(None, 784)]             0
_________________________________________________________________
dense_194 (Dense)            (None, 830)               651550
_________________________________________________________________
activation_142 (Activation)  (None, 830)               0
_________________________________________________________________
dense_195 (Dense)            (None, 1800)              1495800
_________________________________________________________________
activation_143 (Activation)  (None, 1800)              0
_________________________________________________________________
batch_normalization_70 (Batc (None, 1800)              7200
_________________________________________________________________
dense_196 (Dense)            (None, 770)               1386770
_________________________________________________________________
activation_144 (Activation)  (None, 770)               0
_________________________________________________________________
dropout_74 (Dropout)         (None, 770)               0
_________________________________________________________________
batch_normalization_71 (Batc (None, 770)               3080
_________________________________________________________________
dense_197 (Dense)            (None, 10)                7710
=================================================================
Total params: 3,552,110
Trainable params: 3,546,970
Non-trainable params: 5,140
_________________________________________________________________
None
Model: "model_53"
_________________________________________________________________
Layer (type)                 Output Shape              Param #
=================================================================
inputs_basa (InputLayer)     [(None, 784)]             0
_________________________________________________________________
dense_198 (Dense)            (None, 1690)              1326650
_________________________________________________________________
activation_145 (Activation)  (None, 1690)              0
_________________________________________________________________
dropout_75 (Dropout)         (None, 1690)              0
_________________________________________________________________
dense_199 (Dense)            (None, 1390)              2350490
_________________________________________________________________
activation_146 (Activation)  (None, 1390)              0
_________________________________________________________________
dropout_76 (Dropout)         (None, 1390)              0
_________________________________________________________________
dense_200 (Dense)            (None, 1540)              2142140
_________________________________________________________________
activation_147 (Activation)  (None, 1540)              0
_________________________________________________________________
batch_normalization_72 (Batc (None, 1540)              6160
_________________________________________________________________
dense_201 (Dense)            (None, 820)               1263620
_________________________________________________________________
activation_148 (Activation)  (None, 820)               0
_________________________________________________________________
dropout_77 (Dropout)         (None, 820)               0
_________________________________________________________________
dense_202 (Dense)            (None, 10)                8210
=================================================================
Total params: 7,097,270
Trainable params: 7,094,190
Non-trainable params: 3,080
_________________________________________________________________
None
Model: "model_54"
_________________________________________________________________
Layer (type)                 Output Shape              Param #
=================================================================
inputs_basa (InputLayer)     [(None, 784)]             0
_________________________________________________________________
dense_203 (Dense)            (None, 1430)              1122550
_________________________________________________________________
activation_149 (Activation)  (None, 1430)              0
_________________________________________________________________
batch_normalization_73 (Batc (None, 1430)              5720
_________________________________________________________________
dense_204 (Dense)            (None, 10)                14310
=================================================================
Total params: 1,142,580
Trainable params: 1,139,720
Non-trainable params: 2,860
_________________________________________________________________
None
Model: "model_55"
_________________________________________________________________
Layer (type)                 Output Shape              Param #
=================================================================
inputs_basa (InputLayer)     [(None, 784)]             0
_________________________________________________________________
dense_205 (Dense)            (None, 770)               604450
_________________________________________________________________
activation_150 (Activation)  (None, 770)               0
_________________________________________________________________
batch_normalization_74 (Batc (None, 770)               3080
_________________________________________________________________
dense_206 (Dense)            (None, 1700)              1310700
_________________________________________________________________
activation_151 (Activation)  (None, 1700)              0
_________________________________________________________________
dense_207 (Dense)            (None, 10)                17010
=================================================================
Total params: 1,935,240
Trainable params: 1,933,700
Non-trainable params: 1,540
_________________________________________________________________
None
Model: "model_56"
_________________________________________________________________
Layer (type)                 Output Shape              Param #
=================================================================
inputs_basa (InputLayer)     [(None, 784)]             0
_________________________________________________________________
dense_208 (Dense)            (None, 1420)              1114700
_________________________________________________________________
activation_152 (Activation)  (None, 1420)              0
_________________________________________________________________
batch_normalization_75 (Batc (None, 1420)              5680
_________________________________________________________________
dense_209 (Dense)            (None, 520)               738920
_________________________________________________________________
activation_153 (Activation)  (None, 520)               0
_________________________________________________________________
dense_210 (Dense)            (None, 10)                5210
=================================================================
Total params: 1,864,510
Trainable params: 1,861,670
Non-trainable params: 2,840
_________________________________________________________________
None
Model: "model_57"
_________________________________________________________________
Layer (type)                 Output Shape              Param #
=================================================================
inputs_basa (InputLayer)     [(None, 784)]             0
_________________________________________________________________
dense_211 (Dense)            (None, 1540)              1208900
_________________________________________________________________
activation_154 (Activation)  (None, 1540)              0
_________________________________________________________________
dense_212 (Dense)            (None, 10)                15410
=================================================================
Total params: 1,224,310
Trainable params: 1,224,310
Non-trainable params: 0
_________________________________________________________________
None
Model: "model_58"
_________________________________________________________________
Layer (type)                 Output Shape              Param #
=================================================================
inputs_basa (InputLayer)     [(None, 784)]             0
_________________________________________________________________
dense_213 (Dense)            (None, 1430)              1122550
_________________________________________________________________
activation_155 (Activation)  (None, 1430)              0
_________________________________________________________________
batch_normalization_76 (Batc (None, 1430)              5720
_________________________________________________________________
dense_214 (Dense)            (None, 360)               515160
_________________________________________________________________
activation_156 (Activation)  (None, 360)               0
_________________________________________________________________
dense_215 (Dense)            (None, 1850)              667850
_________________________________________________________________
activation_157 (Activation)  (None, 1850)              0
_________________________________________________________________
dropout_78 (Dropout)         (None, 1850)              0
_________________________________________________________________
dense_216 (Dense)            (None, 1810)              3350310
_________________________________________________________________
activation_158 (Activation)  (None, 1810)              0
_________________________________________________________________
batch_normalization_77 (Batc (None, 1810)              7240
_________________________________________________________________
dense_217 (Dense)            (None, 10)                18110
=================================================================
Total params: 5,686,940
Trainable params: 5,680,460
Non-trainable params: 6,480
_________________________________________________________________
None
Model: "model_59"
_________________________________________________________________
Layer (type)                 Output Shape              Param #
=================================================================
inputs_basa (InputLayer)     [(None, 784)]             0
_________________________________________________________________
dense_218 (Dense)            (None, 1030)              808550
_________________________________________________________________
activation_159 (Activation)  (None, 1030)              0
_________________________________________________________________
dense_219 (Dense)            (None, 190)               195890
_________________________________________________________________
activation_160 (Activation)  (None, 190)               0
_________________________________________________________________
dropout_79 (Dropout)         (None, 190)               0
_________________________________________________________________
batch_normalization_78 (Batc (None, 190)               760
_________________________________________________________________
dense_220 (Dense)            (None, 70)                13370
_________________________________________________________________
activation_161 (Activation)  (None, 70)                0
_________________________________________________________________
dropout_80 (Dropout)         (None, 70)                0
_________________________________________________________________
dense_221 (Dense)            (None, 1190)              84490
_________________________________________________________________
activation_162 (Activation)  (None, 1190)              0
_________________________________________________________________
batch_normalization_79 (Batc (None, 1190)              4760
_________________________________________________________________
dense_222 (Dense)            (None, 10)                11910
=================================================================
Total params: 1,119,730
Trainable params: 1,116,970
Non-trainable params: 2,760
_________________________________________________________________
None
Model: "model_60"
_________________________________________________________________
Layer (type)                 Output Shape              Param #
=================================================================
inputs_basa (InputLayer)     [(None, 784)]             0
_________________________________________________________________
dense_223 (Dense)            (None, 1630)              1279550
_________________________________________________________________
activation_163 (Activation)  (None, 1630)              0
_________________________________________________________________
dense_224 (Dense)            (None, 1090)              1777790
_________________________________________________________________
activation_164 (Activation)  (None, 1090)              0
_________________________________________________________________
dropout_81 (Dropout)         (None, 1090)              0
_________________________________________________________________
dense_225 (Dense)            (None, 1880)              2051080
_________________________________________________________________
activation_165 (Activation)  (None, 1880)              0
_________________________________________________________________
dropout_82 (Dropout)         (None, 1880)              0
_________________________________________________________________
batch_normalization_80 (Batc (None, 1880)              7520
_________________________________________________________________
dense_226 (Dense)            (None, 10)                18810
=================================================================
Total params: 5,134,750
Trainable params: 5,130,990
Non-trainable params: 3,760
_________________________________________________________________
None
Train on 48000 samples, validate on 12000 samples
Epoch 1/10
Train on 48000 samples, validate on 12000 samples
Epoch 1/10
Train on 48000 samples, validate on 12000 samplesTrain on 48000 samples, validate on 12000 samples
…
 id = 1  val_accuracy = 0.9804999828338623
 id = 3  val_accuracy = 0.9795833230018616
 id = 4  val_accuracy = 0.9793333411216736
!!!!!!!!!!!!!!!!!!!!!!!!!!!!!!!!!!!!!!!!!!!!!!!!!!
!!!!!!!!!!!!!!!!  3   !!!!!!!!!!!!!!!!!!!!!!!!!!!!!!!!!!
Model: "model_61"
_________________________________________________________________
Layer (type)                 Output Shape              Param #
=================================================================
inputs_basa (InputLayer)     [(None, 784)]             0
_________________________________________________________________
dense_227 (Dense)            (None, 1108)              869780
_________________________________________________________________
activation_166 (Activation)  (None, 1108)              0
_________________________________________________________________
dropout_83 (Dropout)         (None, 1108)              0
_________________________________________________________________
batch_normalization_81 (Batc (None, 1108)              4432
_________________________________________________________________
dense_228 (Dense)            (None, 10)                11090
=================================================================
Total params: 885,302
Trainable params: 883,086
Non-trainable params: 2,216
_________________________________________________________________
None
Model: "model_62"
_________________________________________________________________
Layer (type)                 Output Shape              Param #
=================================================================
inputs_basa (InputLayer)     [(None, 784)]             0
_________________________________________________________________
dense_229 (Dense)            (None, 585)               459225
_________________________________________________________________
activation_167 (Activation)  (None, 585)               0
_________________________________________________________________
dropout_84 (Dropout)         (None, 585)               0
_________________________________________________________________
batch_normalization_82 (Batc (None, 585)               2340
_________________________________________________________________
dense_230 (Dense)            (None, 10)                5860
=================================================================
Total params: 467,425
Trainable params: 466,255
Non-trainable params: 1,170
_________________________________________________________________
None
Model: "model_63"
_________________________________________________________________
Layer (type)                 Output Shape              Param #
=================================================================
inputs_basa (InputLayer)     [(None, 784)]             0
_________________________________________________________________
dense_231 (Dense)            (None, 986)               774010
_________________________________________________________________
activation_168 (Activation)  (None, 986)               0
_________________________________________________________________
dropout_85 (Dropout)         (None, 986)               0
_________________________________________________________________
batch_normalization_83 (Batc (None, 986)               3944
_________________________________________________________________
dense_232 (Dense)            (None, 10)                9870
=================================================================
Total params: 787,824
Trainable params: 785,852
Non-trainable params: 1,972
_________________________________________________________________
None
Model: "model_64"
_________________________________________________________________
Layer (type)                 Output Shape              Param #
=================================================================
inputs_basa (InputLayer)     [(None, 784)]             0
_________________________________________________________________
dense_233 (Dense)            (None, 1211)              950635
_________________________________________________________________
activation_169 (Activation)  (None, 1211)              0
_________________________________________________________________
dropout_86 (Dropout)         (None, 1211)              0
_________________________________________________________________
batch_normalization_84 (Batc (None, 1211)              4844
_________________________________________________________________
dense_234 (Dense)            (None, 10)                12120
=================================================================
Total params: 967,599
Trainable params: 965,177
Non-trainable params: 2,422
_________________________________________________________________
None
Model: "model_65"
_________________________________________________________________
Layer (type)                 Output Shape              Param #
=================================================================
inputs_basa (InputLayer)     [(None, 784)]             0
_________________________________________________________________
dense_235 (Dense)            (None, 389)               305365
_________________________________________________________________
activation_170 (Activation)  (None, 389)               0
_________________________________________________________________
dropout_87 (Dropout)         (None, 389)               0
_________________________________________________________________
batch_normalization_85 (Batc (None, 389)               1556
_________________________________________________________________
dense_236 (Dense)            (None, 10)                3900
=================================================================
Total params: 310,821
Trainable params: 310,043
Non-trainable params: 778
_________________________________________________________________
None
Model: "model_66"
_________________________________________________________________
Layer (type)                 Output Shape              Param #
=================================================================
inputs_basa (InputLayer)     [(None, 784)]             0
_________________________________________________________________
dense_237 (Dense)            (None, 1110)              871350
_________________________________________________________________
activation_171 (Activation)  (None, 1110)              0
_________________________________________________________________
batch_normalization_86 (Batc (None, 1110)              4440
_________________________________________________________________
dense_238 (Dense)            (None, 10)                11110
=================================================================
Total params: 886,900
Trainable params: 884,680
Non-trainable params: 2,220
_________________________________________________________________
None
Model: "model_67"
_________________________________________________________________
Layer (type)                 Output Shape              Param #
=================================================================
inputs_basa (InputLayer)     [(None, 784)]             0
_________________________________________________________________
dense_239 (Dense)            (None, 1540)              1208900
_________________________________________________________________
activation_172 (Activation)  (None, 1540)              0
_________________________________________________________________
dropout_88 (Dropout)         (None, 1540)              0
_________________________________________________________________
batch_normalization_87 (Batc (None, 1540)              6160
_________________________________________________________________
dense_240 (Dense)            (None, 10)                15410
=================================================================
Total params: 1,230,470
Trainable params: 1,227,390
Non-trainable params: 3,080
_________________________________________________________________
None
Model: "model_68"
_________________________________________________________________
Layer (type)                 Output Shape              Param #
=================================================================
inputs_basa (InputLayer)     [(None, 784)]             0
_________________________________________________________________
dense_241 (Dense)            (None, 310)               243350
_________________________________________________________________
activation_173 (Activation)  (None, 310)               0
_________________________________________________________________
dropout_89 (Dropout)         (None, 310)               0
_________________________________________________________________
dense_242 (Dense)            (None, 10)                3110
=================================================================
Total params: 246,460
Trainable params: 246,460
Non-trainable params: 0
_________________________________________________________________
None
Model: "model_69"
_________________________________________________________________
Layer (type)                 Output Shape              Param #
=================================================================
inputs_basa (InputLayer)     [(None, 784)]             0
_________________________________________________________________
dense_243 (Dense)            (None, 1840)              1444400
_________________________________________________________________
activation_174 (Activation)  (None, 1840)              0
_________________________________________________________________
dropout_90 (Dropout)         (None, 1840)              0
_________________________________________________________________
batch_normalization_88 (Batc (None, 1840)              7360
_________________________________________________________________
dense_244 (Dense)            (None, 10)                18410
=================================================================
Total params: 1,470,170
Trainable params: 1,466,490
Non-trainable params: 3,680
_________________________________________________________________
None
Model: "model_70"
_________________________________________________________________
Layer (type)                 Output Shape              Param #
=================================================================
inputs_basa (InputLayer)     [(None, 784)]             0
_________________________________________________________________
dense_245 (Dense)            (None, 550)               431750
_________________________________________________________________
activation_175 (Activation)  (None, 550)               0
_________________________________________________________________
dropout_91 (Dropout)         (None, 550)               0
_________________________________________________________________
dense_246 (Dense)            (None, 10)                5510
=================================================================
Total params: 437,260
Trainable params: 437,260
Non-trainable params: 0
_________________________________________________________________
None
Model: "model_71"
_________________________________________________________________
Layer (type)                 Output Shape              Param #
=================================================================
inputs_basa (InputLayer)     [(None, 784)]             0
_________________________________________________________________
dense_247 (Dense)            (None, 1520)              1193200
_________________________________________________________________
activation_176 (Activation)  (None, 1520)              0
_________________________________________________________________
batch_normalization_89 (Batc (None, 1520)              6080
_________________________________________________________________
dense_248 (Dense)            (None, 10)                15210
=================================================================
Total params: 1,214,490
Trainable params: 1,211,450
Non-trainable params: 3,040
_________________________________________________________________
None
Model: "model_72"
_________________________________________________________________
Layer (type)                 Output Shape              Param #
=================================================================
inputs_basa (InputLayer)     [(None, 784)]             0
_________________________________________________________________
dense_249 (Dense)            (None, 510)               400350
_________________________________________________________________
activation_177 (Activation)  (None, 510)               0
_________________________________________________________________
batch_normalization_90 (Batc (None, 510)               2040
_________________________________________________________________
dense_250 (Dense)            (None, 10)                5110
=================================================================
Total params: 407,500
Trainable params: 406,480
Non-trainable params: 1,020
_________________________________________________________________
None
Model: "model_73"
_________________________________________________________________
Layer (type)                 Output Shape              Param #
=================================================================
inputs_basa (InputLayer)     [(None, 784)]             0
_________________________________________________________________
dense_251 (Dense)            (None, 370)               290450
_________________________________________________________________
activation_178 (Activation)  (None, 370)               0
_________________________________________________________________
dropout_92 (Dropout)         (None, 370)               0
_________________________________________________________________
batch_normalization_91 (Batc (None, 370)               1480
_________________________________________________________________
dense_252 (Dense)            (None, 10)                3710
=================================================================
Total params: 295,640
Trainable params: 294,900
Non-trainable params: 740
_________________________________________________________________
None
Model: "model_74"
_________________________________________________________________
Layer (type)                 Output Shape              Param #
=================================================================
inputs_basa (InputLayer)     [(None, 784)]             0
_________________________________________________________________
dense_253 (Dense)            (None, 1610)              1263850
_________________________________________________________________
activation_179 (Activation)  (None, 1610)              0
_________________________________________________________________
dropout_93 (Dropout)         (None, 1610)              0
_________________________________________________________________
dense_254 (Dense)            (None, 10)                16110
=================================================================
Total params: 1,279,960
Trainable params: 1,279,960
Non-trainable params: 0
_________________________________________________________________
None
Model: "model_75"
_________________________________________________________________
Layer (type)                 Output Shape              Param #
=================================================================
inputs_basa (InputLayer)     [(None, 784)]             0
_________________________________________________________________
dense_255 (Dense)            (None, 1890)              1483650
_________________________________________________________________
activation_180 (Activation)  (None, 1890)              0
_________________________________________________________________
dropout_94 (Dropout)         (None, 1890)              0
_________________________________________________________________
dense_256 (Dense)            (None, 10)                18910
=================================================================
Total params: 1,502,560
Trainable params: 1,502,560
Non-trainable params: 0
_________________________________________________________________
None
Model: "model_76"
_________________________________________________________________
Layer (type)                 Output Shape              Param #
=================================================================
inputs_basa (InputLayer)     [(None, 784)]             0
_________________________________________________________________
dense_257 (Dense)            (None, 120)               94200
_________________________________________________________________
activation_181 (Activation)  (None, 120)               0
_________________________________________________________________
dropout_95 (Dropout)         (None, 120)               0
_________________________________________________________________
batch_normalization_92 (Batc (None, 120)               480
_________________________________________________________________
dense_258 (Dense)            (None, 10)                1210
=================================================================
Total params: 95,890
Trainable params: 95,650
Non-trainable params: 240
_________________________________________________________________
None
Model: "model_77"
_________________________________________________________________
Layer (type)                 Output Shape              Param #
=================================================================
inputs_basa (InputLayer)     [(None, 784)]             0
_________________________________________________________________
dense_259 (Dense)            (None, 1260)              989100
_________________________________________________________________
activation_182 (Activation)  (None, 1260)              0
_________________________________________________________________
dropout_96 (Dropout)         (None, 1260)              0
_________________________________________________________________
batch_normalization_93 (Batc (None, 1260)              5040
_________________________________________________________________
dense_260 (Dense)            (None, 10)                12610
=================================================================
Total params: 1,006,750
Trainable params: 1,004,230
Non-trainable params: 2,520
_________________________________________________________________
None
Model: "model_78"
_________________________________________________________________
Layer (type)                 Output Shape              Param #
=================================================================
inputs_basa (InputLayer)     [(None, 784)]             0
_________________________________________________________________
dense_261 (Dense)            (None, 410)               321850
_________________________________________________________________
activation_183 (Activation)  (None, 410)               0
_________________________________________________________________
dropout_97 (Dropout)         (None, 410)               0
_________________________________________________________________
dense_262 (Dense)            (None, 10)                4110
=================================================================
Total params: 325,960
Trainable params: 325,960
Non-trainable params: 0
_________________________________________________________________
None
Model: "model_79"
_________________________________________________________________
Layer (type)                 Output Shape              Param #
=================================================================
inputs_basa (InputLayer)     [(None, 784)]             0
_________________________________________________________________
dense_263 (Dense)            (None, 170)               133450
_________________________________________________________________
activation_184 (Activation)  (None, 170)               0
_________________________________________________________________
dropout_98 (Dropout)         (None, 170)               0
_________________________________________________________________
batch_normalization_94 (Batc (None, 170)               680
_________________________________________________________________
dense_264 (Dense)            (None, 10)                1710
=================================================================
Total params: 135,840
Trainable params: 135,500
Non-trainable params: 340
_________________________________________________________________
None
Model: "model_80"
_________________________________________________________________
Layer (type)                 Output Shape              Param #
=================================================================
inputs_basa (InputLayer)     [(None, 784)]             0
_________________________________________________________________
dense_265 (Dense)            (None, 1630)              1279550
_________________________________________________________________
activation_185 (Activation)  (None, 1630)              0
_________________________________________________________________
dropout_99 (Dropout)         (None, 1630)              0
_________________________________________________________________
dense_266 (Dense)            (None, 10)                16310
=================================================================
Total params: 1,295,860
Trainable params: 1,295,860
Non-trainable params: 0
_________________________________________________________________
None
Train on 48000 samples, validate on 12000 samples
Epoch 1/10
Train on 48000 samples, validate on 12000 samples
Epoch 1/10
Train on 48000 samples, validate on 12000 samples
Epoch 1/10
Train on 48000 samples, validate on 12000 samples
…
48000/48000 - 6s - loss: 0.0601 - accuracy: 0.9808 - val_loss: 0.0869 - val_accuracy: 0.9762
 id = 2  val_accuracy= 0.9795833230018616
 id = 3  val_accuracy= 0.9795833230018616
 id = 4  val_accuracy= 0.9792500138282776
!!!!!!!!!!!!!!!!!!!!!!!!!!!!!!!!!!!!!!!!!!!!!!!!!!
!!!!!!!!!!!!!!!!  4   !!!!!!!!!!!!!!!!!!!!!!!!!!!!!!!!!!
Model: "model_81"
_________________________________________________________________
Layer (type)                 Output Shape              Param #
=================================================================
inputs_basa (InputLayer)     [(None, 784)]             0
_________________________________________________________________
dense_267 (Dense)            (None, 986)               774010
_________________________________________________________________
activation_186 (Activation)  (None, 986)               0
_________________________________________________________________
dropout_100 (Dropout)        (None, 986)               0
_________________________________________________________________
batch_normalization_95 (Batc (None, 986)               3944
_________________________________________________________________
dense_268 (Dense)            (None, 10)                9870
=================================================================
Total params: 787,824
Trainable params: 785,852
Non-trainable params: 1,972
_________________________________________________________________
None
Model: "model_82"
_________________________________________________________________
Layer (type)                 Output Shape              Param #
=================================================================
inputs_basa (InputLayer)     [(None, 784)]             0
_________________________________________________________________
dense_269 (Dense)            (None, 1211)              950635
_________________________________________________________________
activation_187 (Activation)  (None, 1211)              0
_________________________________________________________________
dropout_101 (Dropout)        (None, 1211)              0
_________________________________________________________________
batch_normalization_96 (Batc (None, 1211)              4844
_________________________________________________________________
dense_270 (Dense)            (None, 10)                12120
=================================================================
Total params: 967,599
Trainable params: 965,177
Non-trainable params: 2,422
_________________________________________________________________
None
Model: "model_83"
_________________________________________________________________
Layer (type)                 Output Shape              Param #
=================================================================
inputs_basa (InputLayer)     [(None, 784)]             0
_________________________________________________________________
dense_271 (Dense)            (None, 389)               305365
_________________________________________________________________
activation_188 (Activation)  (None, 389)               0
_________________________________________________________________
dropout_102 (Dropout)        (None, 389)               0
_________________________________________________________________
batch_normalization_97 (Batc (None, 389)               1556
_________________________________________________________________
dense_272 (Dense)            (None, 10)                3900
=================================================================
Total params: 310,821
Trainable params: 310,043
Non-trainable params: 778
_________________________________________________________________
None
Model: "model_84"
_________________________________________________________________
Layer (type)                 Output Shape              Param #
=================================================================
inputs_basa (InputLayer)     [(None, 784)]             0
_________________________________________________________________
dense_273 (Dense)            (None, 764)               599740
_________________________________________________________________
activation_189 (Activation)  (None, 764)               0
_________________________________________________________________
dropout_103 (Dropout)        (None, 764)               0
_________________________________________________________________
batch_normalization_98 (Batc (None, 764)               3056
_________________________________________________________________
dense_274 (Dense)            (None, 10)                7650
=================================================================
Total params: 610,446
Trainable params: 608,918
Non-trainable params: 1,528
_________________________________________________________________
None
Model: "model_85"
_________________________________________________________________
Layer (type)                 Output Shape              Param #
=================================================================
inputs_basa (InputLayer)     [(None, 784)]             0
_________________________________________________________________
dense_275 (Dense)            (None, 1525)              1197125
_________________________________________________________________
activation_190 (Activation)  (None, 1525)              0
_________________________________________________________________
dropout_104 (Dropout)        (None, 1525)              0
_________________________________________________________________
batch_normalization_99 (Batc (None, 1525)              6100
_________________________________________________________________
dense_276 (Dense)            (None, 10)                15260
=================================================================
Total params: 1,218,485
Trainable params: 1,215,435
Non-trainable params: 3,050
_________________________________________________________________
None
Model: "model_86"
_________________________________________________________________
Layer (type)                 Output Shape              Param #
=================================================================
inputs_basa (InputLayer)     [(None, 784)]             0
_________________________________________________________________
dense_277 (Dense)            (None, 540)               423900
_________________________________________________________________
activation_191 (Activation)  (None, 540)               0
_________________________________________________________________
batch_normalization_100 (Bat (None, 540)               2160
_________________________________________________________________
dense_278 (Dense)            (None, 10)                5410
=================================================================
Total params: 431,470
Trainable params: 430,390
Non-trainable params: 1,080
_________________________________________________________________
None
Model: "model_87"
_________________________________________________________________
Layer (type)                 Output Shape              Param #
=================================================================
inputs_basa (InputLayer)     [(None, 784)]             0
_________________________________________________________________
dense_279 (Dense)            (None, 410)               321850
_________________________________________________________________
activation_192 (Activation)  (None, 410)               0
_________________________________________________________________
batch_normalization_101 (Bat (None, 410)               1640
_________________________________________________________________
dense_280 (Dense)            (None, 10)                4110
=================================================================
Total params: 327,600
Trainable params: 326,780
Non-trainable params: 820
_________________________________________________________________
None
Model: "model_88"
_________________________________________________________________
Layer (type)                 Output Shape              Param #
=================================================================
inputs_basa (InputLayer)     [(None, 784)]             0
_________________________________________________________________
dense_281 (Dense)            (None, 40)                31400
_________________________________________________________________
activation_193 (Activation)  (None, 40)                0
_________________________________________________________________
batch_normalization_102 (Bat (None, 40)                160
_________________________________________________________________
dense_282 (Dense)            (None, 10)                410
=================================================================
Total params: 31,970
Trainable params: 31,890
Non-trainable params: 80
_________________________________________________________________
None
Model: "model_89"
_________________________________________________________________
Layer (type)                 Output Shape              Param #
=================================================================
inputs_basa (InputLayer)     [(None, 784)]             0
_________________________________________________________________
dense_283 (Dense)            (None, 210)               164850
_________________________________________________________________
activation_194 (Activation)  (None, 210)               0
_________________________________________________________________
dropout_105 (Dropout)        (None, 210)               0
_________________________________________________________________
batch_normalization_103 (Bat (None, 210)               840
_________________________________________________________________
dense_284 (Dense)            (None, 10)                2110
=================================================================
Total params: 167,800
Trainable params: 167,380
Non-trainable params: 420
_________________________________________________________________
None
Model: "model_90"
_________________________________________________________________
Layer (type)                 Output Shape              Param #
=================================================================
inputs_basa (InputLayer)     [(None, 784)]             0
_________________________________________________________________
dense_285 (Dense)            (None, 670)               525950
_________________________________________________________________
activation_195 (Activation)  (None, 670)               0
_________________________________________________________________
dense_286 (Dense)            (None, 10)                6710
=================================================================
Total params: 532,660
Trainable params: 532,660
Non-trainable params: 0
_________________________________________________________________
None
Model: "model_91"
_________________________________________________________________
Layer (type)                 Output Shape              Param #
=================================================================
inputs_basa (InputLayer)     [(None, 784)]             0
_________________________________________________________________
dense_287 (Dense)            (None, 1540)              1208900
_________________________________________________________________
activation_196 (Activation)  (None, 1540)              0
_________________________________________________________________
dropout_106 (Dropout)        (None, 1540)              0
_________________________________________________________________
dense_288 (Dense)            (None, 10)                15410
=================================================================
Total params: 1,224,310
Trainable params: 1,224,310
Non-trainable params: 0
_________________________________________________________________
None
Model: "model_92"
_________________________________________________________________
Layer (type)                 Output Shape              Param #
=================================================================
inputs_basa (InputLayer)     [(None, 784)]             0
_________________________________________________________________
dense_289 (Dense)            (None, 1050)              824250
_________________________________________________________________
activation_197 (Activation)  (None, 1050)              0
_________________________________________________________________
dense_290 (Dense)            (None, 10)                10510
=================================================================
Total params: 834,760
Trainable params: 834,760
Non-trainable params: 0
_________________________________________________________________
None
Model: "model_93"
_________________________________________________________________
Layer (type)                 Output Shape              Param #
=================================================================
inputs_basa (InputLayer)     [(None, 784)]             0
_________________________________________________________________
dense_291 (Dense)            (None, 960)               753600
_________________________________________________________________
activation_198 (Activation)  (None, 960)               0
_________________________________________________________________
dropout_107 (Dropout)        (None, 960)               0
_________________________________________________________________
batch_normalization_104 (Bat (None, 960)               3840
_________________________________________________________________
dense_292 (Dense)            (None, 10)                9610
=================================================================
Total params: 767,050
Trainable params: 765,130
Non-trainable params: 1,920
_________________________________________________________________
None
Model: "model_94"
_________________________________________________________________
Layer (type)                 Output Shape              Param #
=================================================================
inputs_basa (InputLayer)     [(None, 784)]             0
_________________________________________________________________
dense_293 (Dense)            (None, 1160)              910600
_________________________________________________________________
activation_199 (Activation)  (None, 1160)              0
_________________________________________________________________
dense_294 (Dense)            (None, 10)                11610
=================================================================
Total params: 922,210
Trainable params: 922,210
Non-trainable params: 0
_________________________________________________________________
None
Model: "model_95"
_________________________________________________________________
Layer (type)                 Output Shape              Param #
=================================================================
inputs_basa (InputLayer)     [(None, 784)]             0
_________________________________________________________________
dense_295 (Dense)            (None, 1120)              879200
_________________________________________________________________
activation_200 (Activation)  (None, 1120)              0
_________________________________________________________________
dense_296 (Dense)            (None, 10)                11210
=================================================================
Total params: 890,410
Trainable params: 890,410
Non-trainable params: 0
_________________________________________________________________
None
Model: "model_96"
_________________________________________________________________
Layer (type)                 Output Shape              Param #
=================================================================
inputs_basa (InputLayer)     [(None, 784)]             0
_________________________________________________________________
dense_297 (Dense)            (None, 380)               298300
_________________________________________________________________
activation_201 (Activation)  (None, 380)               0
_________________________________________________________________
batch_normalization_105 (Bat (None, 380)               1520
_________________________________________________________________
dense_298 (Dense)            (None, 10)                3810
=================================================================
Total params: 303,630
Trainable params: 302,870
Non-trainable params: 760
_________________________________________________________________
None
Model: "model_97"
_________________________________________________________________
Layer (type)                 Output Shape              Param #
=================================================================
inputs_basa (InputLayer)     [(None, 784)]             0
_________________________________________________________________
dense_299 (Dense)            (None, 190)               149150
_________________________________________________________________
activation_202 (Activation)  (None, 190)               0
_________________________________________________________________
dense_300 (Dense)            (None, 10)                1910
=================================================================
Total params: 151,060
Trainable params: 151,060
Non-trainable params: 0
_________________________________________________________________
None
Model: "model_98"
_________________________________________________________________
Layer (type)                 Output Shape              Param #
=================================================================
inputs_basa (InputLayer)     [(None, 784)]             0
_________________________________________________________________
dense_301 (Dense)            (None, 1860)              1460100
_________________________________________________________________
activation_203 (Activation)  (None, 1860)              0
_________________________________________________________________
batch_normalization_106 (Bat (None, 1860)              7440
_________________________________________________________________
dense_302 (Dense)            (None, 10)                18610
=================================================================
Total params: 1,486,150
Trainable params: 1,482,430
Non-trainable params: 3,720
_________________________________________________________________
None
Model: "model_99"
_________________________________________________________________
Layer (type)                 Output Shape              Param #
=================================================================
inputs_basa (InputLayer)     [(None, 784)]             0
_________________________________________________________________
dense_303 (Dense)            (None, 180)               141300
_________________________________________________________________
activation_204 (Activation)  (None, 180)               0
_________________________________________________________________
dense_304 (Dense)            (None, 10)                1810
=================================================================
Total params: 143,110
Trainable params: 143,110
Non-trainable params: 0
_________________________________________________________________
None
Model: "model_100"
_________________________________________________________________
Layer (type)                 Output Shape              Param #
=================================================================
inputs_basa (InputLayer)     [(None, 784)]             0
_________________________________________________________________
dense_305 (Dense)            (None, 1380)              1083300
_________________________________________________________________
activation_205 (Activation)  (None, 1380)              0
_________________________________________________________________
dropout_108 (Dropout)        (None, 1380)              0
_________________________________________________________________
batch_normalization_107 (Bat (None, 1380)              5520
_________________________________________________________________
dense_306 (Dense)            (None, 10)                13810
=================================================================
Total params: 1,102,630
Trainable params: 1,099,870
Non-trainable params: 2,760
_________________________________________________________________
None
Train on 48000 samples, validate on 12000 samples
Epoch 1/10
Train on 48000 samples, validate on 12000 samples
Train on 48000 samples, validate on 12000 samples
Epoch 1/10
Epoch 1/10
…
